{"format": "graph-model", "generatedBy": "2.3.1", "convertedBy": "TensorFlow.js Converter v3.8.0", "signature": {"inputs": {"mels": {"name": "mels:0", "dtype": "DT_FLOAT", "tensorShape": {"dim": [{"size": "-1"}, {"size": "-1"}, {"size": "80"}]}}}, "outputs": {"output_0": {"name": "Identity:0", "dtype": "DT_FLOAT", "tensorShape": {"dim": [{"size": "-1"}, {"size": "-1"}, {"size": "1"}]}}}}, "modelTopology": {"node": [{"name": "StatefulPartitionedCall/PartitionedCall/strided_slice/stack", "op": "Const", "attr": {"dtype": {"type": "DT_INT32"}, "value": {"tensor": {"dtype": "DT_INT32", "tensorShape": {"dim": [{"size": "1"}]}}}}}, {"name": "StatefulPartitionedCall/PartitionedCall/strided_slice/stack_1", "op": "Const", "attr": {"value": {"tensor": {"dtype": "DT_INT32", "tensorShape": {"dim": [{"size": "1"}]}}}, "dtype": {"type": "DT_INT32"}}}, {"name": "StatefulPartitionedCall/PartitionedCall/strided_slice/stack_2", "op": "Const", "attr": {"value": {"tensor": {"dtype": "DT_INT32", "tensorShape": {"dim": [{"size": "1"}]}}}, "dtype": {"type": "DT_INT32"}}}, {"name": "StatefulPartitionedCall/PartitionedCall/conv1d_transpose/concat/values_1", "op": "Const", "attr": {"value": {"tensor": {"dtype": "DT_INT32", "tensorShape": {"dim": [{"size": "1"}]}}}, "dtype": {"type": "DT_INT32"}}}, {"name": "StatefulPartitionedCall/PartitionedCall/strided_slice_1/stack", "op": "Const", "attr": {"value": {"tensor": {"dtype": "DT_INT32", "tensorShape": {"dim": [{"size": "1"}]}}}, "dtype": {"type": "DT_INT32"}}}, {"name": "StatefulPartitionedCall/PartitionedCall/strided_slice_1/stack_1", "op": "Const", "attr": {"value": {"tensor": {"dtype": "DT_INT32", "tensorShape": {"dim": [{"size": "1"}]}}}, "dtype": {"type": "DT_INT32"}}}, {"name": "StatefulPartitionedCall/PartitionedCall/strided_slice_1/stack_2", "op": "Const", "attr": {"value": {"tensor": {"dtype": "DT_INT32", "tensorShape": {"dim": [{"size": "1"}]}}}, "dtype": {"type": "DT_INT32"}}}, {"name": "StatefulPartitionedCall/PartitionedCall/mul/y", "op": "Const", "attr": {"value": {"tensor": {"dtype": "DT_INT32", "tensorShape": {}}}, "dtype": {"type": "DT_INT32"}}}, {"name": "StatefulPartitionedCall/PartitionedCall/conv1d_transpose/concat/values_2/1", "op": "Const", "attr": {"dtype": {"type": "DT_INT32"}, "value": {"tensor": {"dtype": "DT_INT32", "tensorShape": {}}}}}, {"name": "StatefulPartitionedCall/PartitionedCall/conv1d_transpose/concat/axis", "op": "Const", "attr": {"value": {"tensor": {"dtype": "DT_INT32", "tensorShape": {}}}, "dtype": {"type": "DT_INT32"}}}, {"name": "StatefulPartitionedCall/PartitionedCall/conv1d_transpose/ExpandDims_1", "op": "Const", "attr": {"value": {"tensor": {"dtype": "DT_FLOAT", "tensorShape": {"dim": [{"size": "1"}, {"size": "4"}, {"size": "4"}, {"size": "4"}]}}}, "dtype": {"type": "DT_FLOAT"}}}, {"name": "StatefulPartitionedCall/sequential_4/residual_stack_._2._._3/shortcut/conv1d/ExpandDims/dim", "op": "Const", "attr": {"dtype": {"type": "DT_INT32"}, "value": {"tensor": {"dtype": "DT_INT32", "tensorShape": {}}}}}, {"name": "StatefulPartitionedCall/sequential_4/residual_stack_._2._._3/shortcut/conv1d/ExpandDims_1", "op": "Const", "attr": {"value": {"tensor": {"dtype": "DT_FLOAT", "tensorShape": {"dim": [{"size": "1"}, {"size": "1"}, {"size": "48"}, {"size": "48"}]}}}, "dtype": {"type": "DT_FLOAT"}}}, {"name": "unknown_78", "op": "Const", "attr": {"value": {"tensor": {"dtype": "DT_FLOAT", "tensorShape": {"dim": [{"size": "48"}]}}}, "dtype": {"type": "DT_FLOAT"}}}, {"name": "StatefulPartitionedCall/sequential_4/residual_stack_._2._._3/conv1d_23/conv1d/SpaceToBatchND/block_shape", "op": "Const", "attr": {"value": {"tensor": {"dtype": "DT_INT32", "tensorShape": {"dim": [{"size": "1"}]}}}, "dtype": {"type": "DT_INT32"}}}, {"name": "StatefulPartitionedCall/sequential_4/residual_stack_._2._._3/conv1d_23/conv1d/required_space_to_batch_paddings/strided_slice_2", "op": "Const", "attr": {"value": {"tensor": {"dtype": "DT_INT32", "tensorShape": {}}}, "dtype": {"type": "DT_INT32"}}}, {"name": "StatefulPartitionedCall/sequential_4/residual_stack_._2._._3/conv1d_23/conv1d/required_space_to_batch_paddings/strided_slice_3/stack", "op": "Const", "attr": {"value": {"tensor": {"dtype": "DT_INT32", "tensorShape": {"dim": [{"size": "1"}]}}}, "dtype": {"type": "DT_INT32"}}}, {"name": "StatefulPartitionedCall/sequential_4/residual_stack_._2._._3/conv1d_23/conv1d/required_space_to_batch_paddings/strided_slice_3/stack_1", "op": "Const", "attr": {"dtype": {"type": "DT_INT32"}, "value": {"tensor": {"dtype": "DT_INT32", "tensorShape": {"dim": [{"size": "1"}]}}}}}, {"name": "StatefulPartitionedCall/sequential_4/residual_stack_._2._._3/conv1d_23/conv1d/required_space_to_batch_paddings/strided_slice_3/stack_2", "op": "Const", "attr": {"value": {"tensor": {"dtype": "DT_INT32", "tensorShape": {"dim": [{"size": "1"}]}}}, "dtype": {"type": "DT_INT32"}}}, {"name": "StatefulPartitionedCall/sequential_4/residual_stack_._2._._3/conv1d_23/conv1d/ExpandDims/dim", "op": "Const", "attr": {"value": {"tensor": {"dtype": "DT_INT32", "tensorShape": {}}}, "dtype": {"type": "DT_INT32"}}}, {"name": "StatefulPartitionedCall/sequential_4/residual_stack_._2._._3/conv1d_23/conv1d/ExpandDims_1", "op": "Const", "attr": {"dtype": {"type": "DT_FLOAT"}, "value": {"tensor": {"dtype": "DT_FLOAT", "tensorShape": {"dim": [{"size": "1"}, {"size": "3"}, {"size": "48"}, {"size": "48"}]}}}}}, {"name": "StatefulPartitionedCall/sequential_4/residual_stack_._2._._3/conv1d_23/conv1d/BatchToSpaceND/block_shape", "op": "Const", "attr": {"value": {"tensor": {"dtype": "DT_INT32", "tensorShape": {"dim": [{"size": "1"}]}}}, "dtype": {"type": "DT_INT32"}}}, {"name": "StatefulPartitionedCall/sequential_4/residual_stack_._2._._3/conv1d_23/conv1d/required_space_to_batch_paddings/crops/0/0", "op": "Const", "attr": {"value": {"tensor": {"dtype": "DT_INT32", "tensorShape": {}}}, "dtype": {"type": "DT_INT32"}}}, {"name": "StatefulPartitionedCall/sequential_4/residual_stack_._2._._2/shortcut/conv1d/ExpandDims/dim", "op": "Const", "attr": {"value": {"tensor": {"dtype": "DT_INT32", "tensorShape": {}}}, "dtype": {"type": "DT_INT32"}}}, {"name": "StatefulPartitionedCall/sequential_4/residual_stack_._2._._2/shortcut/conv1d/ExpandDims_1", "op": "Const", "attr": {"dtype": {"type": "DT_FLOAT"}, "value": {"tensor": {"dtype": "DT_FLOAT", "tensorShape": {"dim": [{"size": "1"}, {"size": "1"}, {"size": "48"}, {"size": "48"}]}}}}}, {"name": "unknown_72", "op": "Const", "attr": {"value": {"tensor": {"dtype": "DT_FLOAT", "tensorShape": {"dim": [{"size": "48"}]}}}, "dtype": {"type": "DT_FLOAT"}}}, {"name": "StatefulPartitionedCall/sequential_4/residual_stack_._2._._2/conv1d_21/conv1d/SpaceToBatchND/block_shape", "op": "Const", "attr": {"value": {"tensor": {"dtype": "DT_INT32", "tensorShape": {"dim": [{"size": "1"}]}}}, "dtype": {"type": "DT_INT32"}}}, {"name": "StatefulPartitionedCall/sequential_4/residual_stack_._2._._2/conv1d_21/conv1d/required_space_to_batch_paddings/strided_slice_2", "op": "Const", "attr": {"value": {"tensor": {"dtype": "DT_INT32", "tensorShape": {}}}, "dtype": {"type": "DT_INT32"}}}, {"name": "StatefulPartitionedCall/sequential_4/residual_stack_._2._._2/conv1d_21/conv1d/required_space_to_batch_paddings/strided_slice_3/stack", "op": "Const", "attr": {"dtype": {"type": "DT_INT32"}, "value": {"tensor": {"dtype": "DT_INT32", "tensorShape": {"dim": [{"size": "1"}]}}}}}, {"name": "StatefulPartitionedCall/sequential_4/residual_stack_._2._._2/conv1d_21/conv1d/required_space_to_batch_paddings/strided_slice_3/stack_1", "op": "Const", "attr": {"value": {"tensor": {"dtype": "DT_INT32", "tensorShape": {"dim": [{"size": "1"}]}}}, "dtype": {"type": "DT_INT32"}}}, {"name": "StatefulPartitionedCall/sequential_4/residual_stack_._2._._2/conv1d_21/conv1d/required_space_to_batch_paddings/strided_slice_3/stack_2", "op": "Const", "attr": {"value": {"tensor": {"dtype": "DT_INT32", "tensorShape": {"dim": [{"size": "1"}]}}}, "dtype": {"type": "DT_INT32"}}}, {"name": "StatefulPartitionedCall/sequential_4/residual_stack_._2._._2/conv1d_21/conv1d/ExpandDims/dim", "op": "Const", "attr": {"dtype": {"type": "DT_INT32"}, "value": {"tensor": {"dtype": "DT_INT32", "tensorShape": {}}}}}, {"name": "StatefulPartitionedCall/sequential_4/residual_stack_._2._._2/conv1d_21/conv1d/ExpandDims_1", "op": "Const", "attr": {"value": {"tensor": {"dtype": "DT_FLOAT", "tensorShape": {"dim": [{"size": "1"}, {"size": "3"}, {"size": "48"}, {"size": "48"}]}}}, "dtype": {"type": "DT_FLOAT"}}}, {"name": "StatefulPartitionedCall/sequential_4/residual_stack_._2._._2/conv1d_21/conv1d/BatchToSpaceND/block_shape", "op": "Const", "attr": {"value": {"tensor": {"dtype": "DT_INT32", "tensorShape": {"dim": [{"size": "1"}]}}}, "dtype": {"type": "DT_INT32"}}}, {"name": "StatefulPartitionedCall/sequential_4/residual_stack_._2._._2/conv1d_21/conv1d/required_space_to_batch_paddings/crops/0/0", "op": "Const", "attr": {"value": {"tensor": {"dtype": "DT_INT32", "tensorShape": {}}}, "dtype": {"type": "DT_INT32"}}}, {"name": "StatefulPartitionedCall/sequential_4/residual_stack_._2._._1/shortcut/conv1d/ExpandDims/dim", "op": "Const", "attr": {"value": {"tensor": {"dtype": "DT_INT32", "tensorShape": {}}}, "dtype": {"type": "DT_INT32"}}}, {"name": "StatefulPartitionedCall/sequential_4/residual_stack_._2._._1/shortcut/conv1d/ExpandDims_1", "op": "Const", "attr": {"dtype": {"type": "DT_FLOAT"}, "value": {"tensor": {"dtype": "DT_FLOAT", "tensorShape": {"dim": [{"size": "1"}, {"size": "1"}, {"size": "48"}, {"size": "48"}]}}}}}, {"name": "unknown_66", "op": "Const", "attr": {"value": {"tensor": {"dtype": "DT_FLOAT", "tensorShape": {"dim": [{"size": "48"}]}}}, "dtype": {"type": "DT_FLOAT"}}}, {"name": "StatefulPartitionedCall/sequential_4/residual_stack_._2._._1/conv1d_19/conv1d/SpaceToBatchND/block_shape", "op": "Const", "attr": {"value": {"tensor": {"dtype": "DT_INT32", "tensorShape": {"dim": [{"size": "1"}]}}}, "dtype": {"type": "DT_INT32"}}}, {"name": "StatefulPartitionedCall/sequential_4/residual_stack_._2._._1/conv1d_19/conv1d/required_space_to_batch_paddings/strided_slice_2", "op": "Const", "attr": {"value": {"tensor": {"dtype": "DT_INT32", "tensorShape": {}}}, "dtype": {"type": "DT_INT32"}}}, {"name": "StatefulPartitionedCall/sequential_4/residual_stack_._2._._1/conv1d_19/conv1d/required_space_to_batch_paddings/strided_slice_3/stack", "op": "Const", "attr": {"dtype": {"type": "DT_INT32"}, "value": {"tensor": {"dtype": "DT_INT32", "tensorShape": {"dim": [{"size": "1"}]}}}}}, {"name": "StatefulPartitionedCall/sequential_4/residual_stack_._2._._1/conv1d_19/conv1d/required_space_to_batch_paddings/strided_slice_3/stack_1", "op": "Const", "attr": {"value": {"tensor": {"dtype": "DT_INT32", "tensorShape": {"dim": [{"size": "1"}]}}}, "dtype": {"type": "DT_INT32"}}}, {"name": "StatefulPartitionedCall/sequential_4/residual_stack_._2._._1/conv1d_19/conv1d/required_space_to_batch_paddings/strided_slice_3/stack_2", "op": "Const", "attr": {"dtype": {"type": "DT_INT32"}, "value": {"tensor": {"dtype": "DT_INT32", "tensorShape": {"dim": [{"size": "1"}]}}}}}, {"name": "StatefulPartitionedCall/sequential_4/residual_stack_._2._._1/conv1d_19/conv1d/ExpandDims/dim", "op": "Const", "attr": {"dtype": {"type": "DT_INT32"}, "value": {"tensor": {"dtype": "DT_INT32", "tensorShape": {}}}}}, {"name": "StatefulPartitionedCall/sequential_4/residual_stack_._2._._1/conv1d_19/conv1d/ExpandDims_1", "op": "Const", "attr": {"dtype": {"type": "DT_FLOAT"}, "value": {"tensor": {"dtype": "DT_FLOAT", "tensorShape": {"dim": [{"size": "1"}, {"size": "3"}, {"size": "48"}, {"size": "48"}]}}}}}, {"name": "StatefulPartitionedCall/sequential_4/residual_stack_._2._._1/conv1d_19/conv1d/BatchToSpaceND/block_shape", "op": "Const", "attr": {"dtype": {"type": "DT_INT32"}, "value": {"tensor": {"dtype": "DT_INT32", "tensorShape": {"dim": [{"size": "1"}]}}}}}, {"name": "StatefulPartitionedCall/sequential_4/residual_stack_._2._._1/conv1d_19/conv1d/required_space_to_batch_paddings/crops/0/0", "op": "Const", "attr": {"dtype": {"type": "DT_INT32"}, "value": {"tensor": {"dtype": "DT_INT32", "tensorShape": {}}}}}, {"name": "StatefulPartitionedCall/sequential_4/residual_stack_._2._._0/shortcut/conv1d/ExpandDims/dim", "op": "Const", "attr": {"value": {"tensor": {"dtype": "DT_INT32", "tensorShape": {}}}, "dtype": {"type": "DT_INT32"}}}, {"name": "StatefulPartitionedCall/sequential_4/residual_stack_._2._._0/shortcut/conv1d/ExpandDims_1", "op": "Const", "attr": {"value": {"tensor": {"dtype": "DT_FLOAT", "tensorShape": {"dim": [{"size": "1"}, {"size": "1"}, {"size": "48"}, {"size": "48"}]}}}, "dtype": {"type": "DT_FLOAT"}}}, {"name": "unknown_60", "op": "Const", "attr": {"dtype": {"type": "DT_FLOAT"}, "value": {"tensor": {"dtype": "DT_FLOAT", "tensorShape": {"dim": [{"size": "48"}]}}}}}, {"name": "StatefulPartitionedCall/sequential_4/conv_transpose_._2/conv2d_transpose_2/strided_slice/stack", "op": "Const", "attr": {"dtype": {"type": "DT_INT32"}, "value": {"tensor": {"dtype": "DT_INT32", "tensorShape": {"dim": [{"size": "1"}]}}}}}, {"name": "StatefulPartitionedCall/sequential_4/conv_transpose_._2/conv2d_transpose_2/strided_slice/stack_1", "op": "Const", "attr": {"value": {"tensor": {"dtype": "DT_INT32", "tensorShape": {"dim": [{"size": "1"}]}}}, "dtype": {"type": "DT_INT32"}}}, {"name": "StatefulPartitionedCall/sequential_4/conv_transpose_._2/conv2d_transpose_2/strided_slice/stack_2", "op": "Const", "attr": {"value": {"tensor": {"dtype": "DT_INT32", "tensorShape": {"dim": [{"size": "1"}]}}}, "dtype": {"type": "DT_INT32"}}}, {"name": "StatefulPartitionedCall/sequential_4/conv_transpose_._2/conv2d_transpose_2/strided_slice_1/stack", "op": "Const", "attr": {"value": {"tensor": {"dtype": "DT_INT32", "tensorShape": {"dim": [{"size": "1"}]}}}, "dtype": {"type": "DT_INT32"}}}, {"name": "StatefulPartitionedCall/sequential_4/conv_transpose_._2/conv2d_transpose_2/strided_slice_1/stack_1", "op": "Const", "attr": {"value": {"tensor": {"dtype": "DT_INT32", "tensorShape": {"dim": [{"size": "1"}]}}}, "dtype": {"type": "DT_INT32"}}}, {"name": "StatefulPartitionedCall/sequential_4/conv_transpose_._2/conv2d_transpose_2/strided_slice_1/stack_2", "op": "Const", "attr": {"value": {"tensor": {"dtype": "DT_INT32", "tensorShape": {"dim": [{"size": "1"}]}}}, "dtype": {"type": "DT_INT32"}}}, {"name": "StatefulPartitionedCall/sequential_4/conv_transpose_._2/conv2d_transpose_2/mul/y", "op": "Const", "attr": {"dtype": {"type": "DT_INT32"}, "value": {"tensor": {"dtype": "DT_INT32", "tensorShape": {}}}}}, {"name": "StatefulPartitionedCall/sequential_4/conv_transpose_._2/conv2d_transpose_2/stack/2", "op": "Const", "attr": {"value": {"tensor": {"dtype": "DT_INT32", "tensorShape": {}}}, "dtype": {"type": "DT_INT32"}}}, {"name": "StatefulPartitionedCall/sequential_4/conv_transpose_._2/conv2d_transpose_2/stack/3", "op": "Const", "attr": {"dtype": {"type": "DT_INT32"}, "value": {"tensor": {"dtype": "DT_INT32", "tensorShape": {}}}}}, {"name": "unknown_53", "op": "Const", "attr": {"dtype": {"type": "DT_FLOAT"}, "value": {"tensor": {"dtype": "DT_FLOAT", "tensorShape": {"dim": [{"size": "4"}, {"size": "1"}, {"size": "48"}, {"size": "96"}]}}}}}, {"name": "StatefulPartitionedCall/sequential_4/residual_stack_._1._._3/shortcut/conv1d/ExpandDims/dim", "op": "Const", "attr": {"dtype": {"type": "DT_INT32"}, "value": {"tensor": {"dtype": "DT_INT32", "tensorShape": {}}}}}, {"name": "StatefulPartitionedCall/sequential_4/residual_stack_._1._._3/shortcut/conv1d/ExpandDims_1", "op": "Const", "attr": {"dtype": {"type": "DT_FLOAT"}, "value": {"tensor": {"dtype": "DT_FLOAT", "tensorShape": {"dim": [{"size": "1"}, {"size": "1"}, {"size": "96"}, {"size": "96"}]}}}}}, {"name": "unknown_52", "op": "Const", "attr": {"dtype": {"type": "DT_FLOAT"}, "value": {"tensor": {"dtype": "DT_FLOAT", "tensorShape": {"dim": [{"size": "96"}]}}}}}, {"name": "StatefulPartitionedCall/sequential_4/residual_stack_._1._._3/conv1d_15/conv1d/SpaceToBatchND/block_shape", "op": "Const", "attr": {"dtype": {"type": "DT_INT32"}, "value": {"tensor": {"dtype": "DT_INT32", "tensorShape": {"dim": [{"size": "1"}]}}}}}, {"name": "StatefulPartitionedCall/sequential_4/residual_stack_._1._._3/conv1d_15/conv1d/required_space_to_batch_paddings/strided_slice_2", "op": "Const", "attr": {"dtype": {"type": "DT_INT32"}, "value": {"tensor": {"dtype": "DT_INT32", "tensorShape": {}}}}}, {"name": "StatefulPartitionedCall/sequential_4/residual_stack_._1._._3/conv1d_15/conv1d/required_space_to_batch_paddings/strided_slice_3/stack", "op": "Const", "attr": {"dtype": {"type": "DT_INT32"}, "value": {"tensor": {"dtype": "DT_INT32", "tensorShape": {"dim": [{"size": "1"}]}}}}}, {"name": "StatefulPartitionedCall/sequential_4/residual_stack_._1._._3/conv1d_15/conv1d/required_space_to_batch_paddings/strided_slice_3/stack_1", "op": "Const", "attr": {"dtype": {"type": "DT_INT32"}, "value": {"tensor": {"dtype": "DT_INT32", "tensorShape": {"dim": [{"size": "1"}]}}}}}, {"name": "StatefulPartitionedCall/sequential_4/residual_stack_._1._._3/conv1d_15/conv1d/required_space_to_batch_paddings/strided_slice_3/stack_2", "op": "Const", "attr": {"value": {"tensor": {"dtype": "DT_INT32", "tensorShape": {"dim": [{"size": "1"}]}}}, "dtype": {"type": "DT_INT32"}}}, {"name": "StatefulPartitionedCall/sequential_4/residual_stack_._1._._3/conv1d_15/conv1d/ExpandDims/dim", "op": "Const", "attr": {"value": {"tensor": {"dtype": "DT_INT32", "tensorShape": {}}}, "dtype": {"type": "DT_INT32"}}}, {"name": "StatefulPartitionedCall/sequential_4/residual_stack_._1._._3/conv1d_15/conv1d/ExpandDims_1", "op": "Const", "attr": {"dtype": {"type": "DT_FLOAT"}, "value": {"tensor": {"dtype": "DT_FLOAT", "tensorShape": {"dim": [{"size": "1"}, {"size": "3"}, {"size": "96"}, {"size": "96"}]}}}}}, {"name": "StatefulPartitionedCall/sequential_4/residual_stack_._1._._3/conv1d_15/conv1d/BatchToSpaceND/block_shape", "op": "Const", "attr": {"dtype": {"type": "DT_INT32"}, "value": {"tensor": {"dtype": "DT_INT32", "tensorShape": {"dim": [{"size": "1"}]}}}}}, {"name": "StatefulPartitionedCall/sequential_4/residual_stack_._1._._3/conv1d_15/conv1d/required_space_to_batch_paddings/crops/0/0", "op": "Const", "attr": {"dtype": {"type": "DT_INT32"}, "value": {"tensor": {"dtype": "DT_INT32", "tensorShape": {}}}}}, {"name": "StatefulPartitionedCall/sequential_4/residual_stack_._1._._2/shortcut/conv1d/ExpandDims/dim", "op": "Const", "attr": {"dtype": {"type": "DT_INT32"}, "value": {"tensor": {"dtype": "DT_INT32", "tensorShape": {}}}}}, {"name": "StatefulPartitionedCall/sequential_4/residual_stack_._1._._2/shortcut/conv1d/ExpandDims_1", "op": "Const", "attr": {"value": {"tensor": {"dtype": "DT_FLOAT", "tensorShape": {"dim": [{"size": "1"}, {"size": "1"}, {"size": "96"}, {"size": "96"}]}}}, "dtype": {"type": "DT_FLOAT"}}}, {"name": "unknown_46", "op": "Const", "attr": {"dtype": {"type": "DT_FLOAT"}, "value": {"tensor": {"dtype": "DT_FLOAT", "tensorShape": {"dim": [{"size": "96"}]}}}}}, {"name": "StatefulPartitionedCall/sequential_4/residual_stack_._1._._2/conv1d_13/conv1d/SpaceToBatchND/block_shape", "op": "Const", "attr": {"value": {"tensor": {"dtype": "DT_INT32", "tensorShape": {"dim": [{"size": "1"}]}}}, "dtype": {"type": "DT_INT32"}}}, {"name": "StatefulPartitionedCall/sequential_4/residual_stack_._1._._2/conv1d_13/conv1d/required_space_to_batch_paddings/strided_slice_2", "op": "Const", "attr": {"value": {"tensor": {"dtype": "DT_INT32", "tensorShape": {}}}, "dtype": {"type": "DT_INT32"}}}, {"name": "StatefulPartitionedCall/sequential_4/residual_stack_._1._._2/conv1d_13/conv1d/required_space_to_batch_paddings/strided_slice_3/stack", "op": "Const", "attr": {"value": {"tensor": {"dtype": "DT_INT32", "tensorShape": {"dim": [{"size": "1"}]}}}, "dtype": {"type": "DT_INT32"}}}, {"name": "StatefulPartitionedCall/sequential_4/residual_stack_._1._._2/conv1d_13/conv1d/required_space_to_batch_paddings/strided_slice_3/stack_1", "op": "Const", "attr": {"dtype": {"type": "DT_INT32"}, "value": {"tensor": {"dtype": "DT_INT32", "tensorShape": {"dim": [{"size": "1"}]}}}}}, {"name": "StatefulPartitionedCall/sequential_4/residual_stack_._1._._2/conv1d_13/conv1d/required_space_to_batch_paddings/strided_slice_3/stack_2", "op": "Const", "attr": {"dtype": {"type": "DT_INT32"}, "value": {"tensor": {"dtype": "DT_INT32", "tensorShape": {"dim": [{"size": "1"}]}}}}}, {"name": "StatefulPartitionedCall/sequential_4/residual_stack_._1._._2/conv1d_13/conv1d/ExpandDims/dim", "op": "Const", "attr": {"dtype": {"type": "DT_INT32"}, "value": {"tensor": {"dtype": "DT_INT32", "tensorShape": {}}}}}, {"name": "StatefulPartitionedCall/sequential_4/residual_stack_._1._._2/conv1d_13/conv1d/ExpandDims_1", "op": "Const", "attr": {"value": {"tensor": {"dtype": "DT_FLOAT", "tensorShape": {"dim": [{"size": "1"}, {"size": "3"}, {"size": "96"}, {"size": "96"}]}}}, "dtype": {"type": "DT_FLOAT"}}}, {"name": "StatefulPartitionedCall/sequential_4/residual_stack_._1._._2/conv1d_13/conv1d/BatchToSpaceND/block_shape", "op": "Const", "attr": {"dtype": {"type": "DT_INT32"}, "value": {"tensor": {"dtype": "DT_INT32", "tensorShape": {"dim": [{"size": "1"}]}}}}}, {"name": "StatefulPartitionedCall/sequential_4/residual_stack_._1._._2/conv1d_13/conv1d/required_space_to_batch_paddings/crops/0/0", "op": "Const", "attr": {"dtype": {"type": "DT_INT32"}, "value": {"tensor": {"dtype": "DT_INT32", "tensorShape": {}}}}}, {"name": "StatefulPartitionedCall/sequential_4/residual_stack_._1._._1/shortcut/conv1d/ExpandDims/dim", "op": "Const", "attr": {"dtype": {"type": "DT_INT32"}, "value": {"tensor": {"dtype": "DT_INT32", "tensorShape": {}}}}}, {"name": "StatefulPartitionedCall/sequential_4/residual_stack_._1._._1/shortcut/conv1d/ExpandDims_1", "op": "Const", "attr": {"dtype": {"type": "DT_FLOAT"}, "value": {"tensor": {"dtype": "DT_FLOAT", "tensorShape": {"dim": [{"size": "1"}, {"size": "1"}, {"size": "96"}, {"size": "96"}]}}}}}, {"name": "unknown_40", "op": "Const", "attr": {"dtype": {"type": "DT_FLOAT"}, "value": {"tensor": {"dtype": "DT_FLOAT", "tensorShape": {"dim": [{"size": "96"}]}}}}}, {"name": "StatefulPartitionedCall/sequential_4/residual_stack_._1._._1/conv1d_11/conv1d/SpaceToBatchND/block_shape", "op": "Const", "attr": {"dtype": {"type": "DT_INT32"}, "value": {"tensor": {"dtype": "DT_INT32", "tensorShape": {"dim": [{"size": "1"}]}}}}}, {"name": "StatefulPartitionedCall/sequential_4/residual_stack_._1._._1/conv1d_11/conv1d/required_space_to_batch_paddings/strided_slice_2", "op": "Const", "attr": {"dtype": {"type": "DT_INT32"}, "value": {"tensor": {"dtype": "DT_INT32", "tensorShape": {}}}}}, {"name": "StatefulPartitionedCall/sequential_4/residual_stack_._1._._1/conv1d_11/conv1d/required_space_to_batch_paddings/strided_slice_3/stack", "op": "Const", "attr": {"dtype": {"type": "DT_INT32"}, "value": {"tensor": {"dtype": "DT_INT32", "tensorShape": {"dim": [{"size": "1"}]}}}}}, {"name": "StatefulPartitionedCall/sequential_4/residual_stack_._1._._1/conv1d_11/conv1d/required_space_to_batch_paddings/strided_slice_3/stack_1", "op": "Const", "attr": {"dtype": {"type": "DT_INT32"}, "value": {"tensor": {"dtype": "DT_INT32", "tensorShape": {"dim": [{"size": "1"}]}}}}}, {"name": "StatefulPartitionedCall/sequential_4/residual_stack_._1._._1/conv1d_11/conv1d/required_space_to_batch_paddings/strided_slice_3/stack_2", "op": "Const", "attr": {"dtype": {"type": "DT_INT32"}, "value": {"tensor": {"dtype": "DT_INT32", "tensorShape": {"dim": [{"size": "1"}]}}}}}, {"name": "StatefulPartitionedCall/sequential_4/residual_stack_._1._._1/conv1d_11/conv1d/ExpandDims/dim", "op": "Const", "attr": {"value": {"tensor": {"dtype": "DT_INT32", "tensorShape": {}}}, "dtype": {"type": "DT_INT32"}}}, {"name": "StatefulPartitionedCall/sequential_4/residual_stack_._1._._1/conv1d_11/conv1d/ExpandDims_1", "op": "Const", "attr": {"dtype": {"type": "DT_FLOAT"}, "value": {"tensor": {"dtype": "DT_FLOAT", "tensorShape": {"dim": [{"size": "1"}, {"size": "3"}, {"size": "96"}, {"size": "96"}]}}}}}, {"name": "StatefulPartitionedCall/sequential_4/residual_stack_._1._._1/conv1d_11/conv1d/BatchToSpaceND/block_shape", "op": "Const", "attr": {"dtype": {"type": "DT_INT32"}, "value": {"tensor": {"dtype": "DT_INT32", "tensorShape": {"dim": [{"size": "1"}]}}}}}, {"name": "StatefulPartitionedCall/sequential_4/residual_stack_._1._._1/conv1d_11/conv1d/required_space_to_batch_paddings/crops/0/0", "op": "Const", "attr": {"value": {"tensor": {"dtype": "DT_INT32", "tensorShape": {}}}, "dtype": {"type": "DT_INT32"}}}, {"name": "StatefulPartitionedCall/sequential_4/residual_stack_._1._._0/shortcut/conv1d/ExpandDims/dim", "op": "Const", "attr": {"dtype": {"type": "DT_INT32"}, "value": {"tensor": {"dtype": "DT_INT32", "tensorShape": {}}}}}, {"name": "StatefulPartitionedCall/sequential_4/residual_stack_._1._._0/shortcut/conv1d/ExpandDims_1", "op": "Const", "attr": {"dtype": {"type": "DT_FLOAT"}, "value": {"tensor": {"dtype": "DT_FLOAT", "tensorShape": {"dim": [{"size": "1"}, {"size": "1"}, {"size": "96"}, {"size": "96"}]}}}}}, {"name": "unknown_34", "op": "Const", "attr": {"value": {"tensor": {"dtype": "DT_FLOAT", "tensorShape": {"dim": [{"size": "96"}]}}}, "dtype": {"type": "DT_FLOAT"}}}, {"name": "StatefulPartitionedCall/sequential_4/conv_transpose_._1/conv2d_transpose_1/strided_slice/stack", "op": "Const", "attr": {"dtype": {"type": "DT_INT32"}, "value": {"tensor": {"dtype": "DT_INT32", "tensorShape": {"dim": [{"size": "1"}]}}}}}, {"name": "StatefulPartitionedCall/sequential_4/conv_transpose_._1/conv2d_transpose_1/strided_slice/stack_1", "op": "Const", "attr": {"dtype": {"type": "DT_INT32"}, "value": {"tensor": {"dtype": "DT_INT32", "tensorShape": {"dim": [{"size": "1"}]}}}}}, {"name": "StatefulPartitionedCall/sequential_4/conv_transpose_._1/conv2d_transpose_1/strided_slice/stack_2", "op": "Const", "attr": {"dtype": {"type": "DT_INT32"}, "value": {"tensor": {"dtype": "DT_INT32", "tensorShape": {"dim": [{"size": "1"}]}}}}}, {"name": "StatefulPartitionedCall/sequential_4/conv_transpose_._1/conv2d_transpose_1/strided_slice_1/stack", "op": "Const", "attr": {"dtype": {"type": "DT_INT32"}, "value": {"tensor": {"dtype": "DT_INT32", "tensorShape": {"dim": [{"size": "1"}]}}}}}, {"name": "StatefulPartitionedCall/sequential_4/conv_transpose_._1/conv2d_transpose_1/strided_slice_1/stack_1", "op": "Const", "attr": {"dtype": {"type": "DT_INT32"}, "value": {"tensor": {"dtype": "DT_INT32", "tensorShape": {"dim": [{"size": "1"}]}}}}}, {"name": "StatefulPartitionedCall/sequential_4/conv_transpose_._1/conv2d_transpose_1/strided_slice_1/stack_2", "op": "Const", "attr": {"dtype": {"type": "DT_INT32"}, "value": {"tensor": {"dtype": "DT_INT32", "tensorShape": {"dim": [{"size": "1"}]}}}}}, {"name": "StatefulPartitionedCall/sequential_4/conv_transpose_._1/conv2d_transpose_1/mul/y", "op": "Const", "attr": {"dtype": {"type": "DT_INT32"}, "value": {"tensor": {"dtype": "DT_INT32", "tensorShape": {}}}}}, {"name": "StatefulPartitionedCall/sequential_4/conv_transpose_._1/conv2d_transpose_1/stack/2", "op": "Const", "attr": {"dtype": {"type": "DT_INT32"}, "value": {"tensor": {"dtype": "DT_INT32", "tensorShape": {}}}}}, {"name": "StatefulPartitionedCall/sequential_4/conv_transpose_._1/conv2d_transpose_1/stack/3", "op": "Const", "attr": {"dtype": {"type": "DT_INT32"}, "value": {"tensor": {"dtype": "DT_INT32", "tensorShape": {}}}}}, {"name": "unknown_27", "op": "Const", "attr": {"dtype": {"type": "DT_FLOAT"}, "value": {"tensor": {"dtype": "DT_FLOAT", "tensorShape": {"dim": [{"size": "8"}, {"size": "1"}, {"size": "96"}, {"size": "192"}]}}}}}, {"name": "StatefulPartitionedCall/sequential_4/residual_stack_._0._._3/shortcut/conv1d/ExpandDims/dim", "op": "Const", "attr": {"dtype": {"type": "DT_INT32"}, "value": {"tensor": {"dtype": "DT_INT32", "tensorShape": {}}}}}, {"name": "StatefulPartitionedCall/sequential_4/residual_stack_._0._._3/shortcut/conv1d/ExpandDims_1", "op": "Const", "attr": {"dtype": {"type": "DT_FLOAT"}, "value": {"tensor": {"dtype": "DT_FLOAT", "tensorShape": {"dim": [{"size": "1"}, {"size": "1"}, {"size": "192"}, {"size": "192"}]}}}}}, {"name": "unknown_26", "op": "Const", "attr": {"value": {"tensor": {"dtype": "DT_FLOAT", "tensorShape": {"dim": [{"size": "192"}]}}}, "dtype": {"type": "DT_FLOAT"}}}, {"name": "StatefulPartitionedCall/sequential_4/residual_stack_._0._._3/conv1d_7/conv1d/SpaceToBatchND/block_shape", "op": "Const", "attr": {"dtype": {"type": "DT_INT32"}, "value": {"tensor": {"dtype": "DT_INT32", "tensorShape": {"dim": [{"size": "1"}]}}}}}, {"name": "StatefulPartitionedCall/sequential_4/residual_stack_._0._._3/conv1d_7/conv1d/required_space_to_batch_paddings/strided_slice_2", "op": "Const", "attr": {"dtype": {"type": "DT_INT32"}, "value": {"tensor": {"dtype": "DT_INT32", "tensorShape": {}}}}}, {"name": "StatefulPartitionedCall/sequential_4/residual_stack_._0._._3/conv1d_7/conv1d/required_space_to_batch_paddings/strided_slice_3/stack", "op": "Const", "attr": {"dtype": {"type": "DT_INT32"}, "value": {"tensor": {"dtype": "DT_INT32", "tensorShape": {"dim": [{"size": "1"}]}}}}}, {"name": "StatefulPartitionedCall/sequential_4/residual_stack_._0._._3/conv1d_7/conv1d/required_space_to_batch_paddings/strided_slice_3/stack_1", "op": "Const", "attr": {"value": {"tensor": {"dtype": "DT_INT32", "tensorShape": {"dim": [{"size": "1"}]}}}, "dtype": {"type": "DT_INT32"}}}, {"name": "StatefulPartitionedCall/sequential_4/residual_stack_._0._._3/conv1d_7/conv1d/required_space_to_batch_paddings/strided_slice_3/stack_2", "op": "Const", "attr": {"dtype": {"type": "DT_INT32"}, "value": {"tensor": {"dtype": "DT_INT32", "tensorShape": {"dim": [{"size": "1"}]}}}}}, {"name": "StatefulPartitionedCall/sequential_4/residual_stack_._0._._3/conv1d_7/conv1d/ExpandDims/dim", "op": "Const", "attr": {"dtype": {"type": "DT_INT32"}, "value": {"tensor": {"dtype": "DT_INT32", "tensorShape": {}}}}}, {"name": "StatefulPartitionedCall/sequential_4/residual_stack_._0._._3/conv1d_7/conv1d/ExpandDims_1", "op": "Const", "attr": {"value": {"tensor": {"dtype": "DT_FLOAT", "tensorShape": {"dim": [{"size": "1"}, {"size": "3"}, {"size": "192"}, {"size": "192"}]}}}, "dtype": {"type": "DT_FLOAT"}}}, {"name": "StatefulPartitionedCall/sequential_4/residual_stack_._0._._3/conv1d_7/conv1d/BatchToSpaceND/block_shape", "op": "Const", "attr": {"value": {"tensor": {"dtype": "DT_INT32", "tensorShape": {"dim": [{"size": "1"}]}}}, "dtype": {"type": "DT_INT32"}}}, {"name": "StatefulPartitionedCall/sequential_4/residual_stack_._0._._3/conv1d_7/conv1d/required_space_to_batch_paddings/crops/0/0", "op": "Const", "attr": {"dtype": {"type": "DT_INT32"}, "value": {"tensor": {"dtype": "DT_INT32", "tensorShape": {}}}}}, {"name": "StatefulPartitionedCall/sequential_4/residual_stack_._0._._2/shortcut/conv1d/ExpandDims/dim", "op": "Const", "attr": {"dtype": {"type": "DT_INT32"}, "value": {"tensor": {"dtype": "DT_INT32", "tensorShape": {}}}}}, {"name": "StatefulPartitionedCall/sequential_4/residual_stack_._0._._2/shortcut/conv1d/ExpandDims_1", "op": "Const", "attr": {"value": {"tensor": {"dtype": "DT_FLOAT", "tensorShape": {"dim": [{"size": "1"}, {"size": "1"}, {"size": "192"}, {"size": "192"}]}}}, "dtype": {"type": "DT_FLOAT"}}}, {"name": "unknown_20", "op": "Const", "attr": {"dtype": {"type": "DT_FLOAT"}, "value": {"tensor": {"dtype": "DT_FLOAT", "tensorShape": {"dim": [{"size": "192"}]}}}}}, {"name": "StatefulPartitionedCall/sequential_4/residual_stack_._0._._2/conv1d_5/conv1d/SpaceToBatchND/block_shape", "op": "Const", "attr": {"value": {"tensor": {"dtype": "DT_INT32", "tensorShape": {"dim": [{"size": "1"}]}}}, "dtype": {"type": "DT_INT32"}}}, {"name": "StatefulPartitionedCall/sequential_4/residual_stack_._0._._2/conv1d_5/conv1d/required_space_to_batch_paddings/strided_slice_2", "op": "Const", "attr": {"dtype": {"type": "DT_INT32"}, "value": {"tensor": {"dtype": "DT_INT32", "tensorShape": {}}}}}, {"name": "StatefulPartitionedCall/sequential_4/residual_stack_._0._._2/conv1d_5/conv1d/required_space_to_batch_paddings/strided_slice_3/stack", "op": "Const", "attr": {"value": {"tensor": {"dtype": "DT_INT32", "tensorShape": {"dim": [{"size": "1"}]}}}, "dtype": {"type": "DT_INT32"}}}, {"name": "StatefulPartitionedCall/sequential_4/residual_stack_._0._._2/conv1d_5/conv1d/required_space_to_batch_paddings/strided_slice_3/stack_1", "op": "Const", "attr": {"dtype": {"type": "DT_INT32"}, "value": {"tensor": {"dtype": "DT_INT32", "tensorShape": {"dim": [{"size": "1"}]}}}}}, {"name": "StatefulPartitionedCall/sequential_4/residual_stack_._0._._2/conv1d_5/conv1d/required_space_to_batch_paddings/strided_slice_3/stack_2", "op": "Const", "attr": {"dtype": {"type": "DT_INT32"}, "value": {"tensor": {"dtype": "DT_INT32", "tensorShape": {"dim": [{"size": "1"}]}}}}}, {"name": "StatefulPartitionedCall/sequential_4/residual_stack_._0._._2/conv1d_5/conv1d/ExpandDims/dim", "op": "Const", "attr": {"dtype": {"type": "DT_INT32"}, "value": {"tensor": {"dtype": "DT_INT32", "tensorShape": {}}}}}, {"name": "StatefulPartitionedCall/sequential_4/residual_stack_._0._._2/conv1d_5/conv1d/ExpandDims_1", "op": "Const", "attr": {"value": {"tensor": {"dtype": "DT_FLOAT", "tensorShape": {"dim": [{"size": "1"}, {"size": "3"}, {"size": "192"}, {"size": "192"}]}}}, "dtype": {"type": "DT_FLOAT"}}}, {"name": "StatefulPartitionedCall/sequential_4/residual_stack_._0._._2/conv1d_5/conv1d/BatchToSpaceND/block_shape", "op": "Const", "attr": {"value": {"tensor": {"dtype": "DT_INT32", "tensorShape": {"dim": [{"size": "1"}]}}}, "dtype": {"type": "DT_INT32"}}}, {"name": "StatefulPartitionedCall/sequential_4/residual_stack_._0._._2/conv1d_5/conv1d/required_space_to_batch_paddings/crops/0/0", "op": "Const", "attr": {"dtype": {"type": "DT_INT32"}, "value": {"tensor": {"dtype": "DT_INT32", "tensorShape": {}}}}}, {"name": "StatefulPartitionedCall/sequential_4/residual_stack_._0._._1/shortcut/conv1d/ExpandDims/dim", "op": "Const", "attr": {"value": {"tensor": {"dtype": "DT_INT32", "tensorShape": {}}}, "dtype": {"type": "DT_INT32"}}}, {"name": "StatefulPartitionedCall/sequential_4/residual_stack_._0._._1/shortcut/conv1d/ExpandDims_1", "op": "Const", "attr": {"value": {"tensor": {"dtype": "DT_FLOAT", "tensorShape": {"dim": [{"size": "1"}, {"size": "1"}, {"size": "192"}, {"size": "192"}]}}}, "dtype": {"type": "DT_FLOAT"}}}, {"name": "unknown_14", "op": "Const", "attr": {"value": {"tensor": {"dtype": "DT_FLOAT", "tensorShape": {"dim": [{"size": "192"}]}}}, "dtype": {"type": "DT_FLOAT"}}}, {"name": "StatefulPartitionedCall/sequential_4/residual_stack_._0._._1/conv1d_3/conv1d/SpaceToBatchND/block_shape", "op": "Const", "attr": {"dtype": {"type": "DT_INT32"}, "value": {"tensor": {"dtype": "DT_INT32", "tensorShape": {"dim": [{"size": "1"}]}}}}}, {"name": "StatefulPartitionedCall/sequential_4/residual_stack_._0._._1/conv1d_3/conv1d/required_space_to_batch_paddings/strided_slice_2", "op": "Const", "attr": {"value": {"tensor": {"dtype": "DT_INT32", "tensorShape": {}}}, "dtype": {"type": "DT_INT32"}}}, {"name": "StatefulPartitionedCall/sequential_4/residual_stack_._0._._1/conv1d_3/conv1d/required_space_to_batch_paddings/strided_slice_3/stack", "op": "Const", "attr": {"dtype": {"type": "DT_INT32"}, "value": {"tensor": {"dtype": "DT_INT32", "tensorShape": {"dim": [{"size": "1"}]}}}}}, {"name": "StatefulPartitionedCall/sequential_4/residual_stack_._0._._1/conv1d_3/conv1d/required_space_to_batch_paddings/strided_slice_3/stack_1", "op": "Const", "attr": {"value": {"tensor": {"dtype": "DT_INT32", "tensorShape": {"dim": [{"size": "1"}]}}}, "dtype": {"type": "DT_INT32"}}}, {"name": "StatefulPartitionedCall/sequential_4/residual_stack_._0._._1/conv1d_3/conv1d/required_space_to_batch_paddings/strided_slice_3/stack_2", "op": "Const", "attr": {"dtype": {"type": "DT_INT32"}, "value": {"tensor": {"dtype": "DT_INT32", "tensorShape": {"dim": [{"size": "1"}]}}}}}, {"name": "StatefulPartitionedCall/sequential_4/residual_stack_._0._._1/conv1d_3/conv1d/ExpandDims/dim", "op": "Const", "attr": {"value": {"tensor": {"dtype": "DT_INT32", "tensorShape": {}}}, "dtype": {"type": "DT_INT32"}}}, {"name": "StatefulPartitionedCall/sequential_4/residual_stack_._0._._1/conv1d_3/conv1d/ExpandDims_1", "op": "Const", "attr": {"dtype": {"type": "DT_FLOAT"}, "value": {"tensor": {"dtype": "DT_FLOAT", "tensorShape": {"dim": [{"size": "1"}, {"size": "3"}, {"size": "192"}, {"size": "192"}]}}}}}, {"name": "StatefulPartitionedCall/sequential_4/residual_stack_._0._._1/conv1d_3/conv1d/BatchToSpaceND/block_shape", "op": "Const", "attr": {"value": {"tensor": {"dtype": "DT_INT32", "tensorShape": {"dim": [{"size": "1"}]}}}, "dtype": {"type": "DT_INT32"}}}, {"name": "StatefulPartitionedCall/sequential_4/residual_stack_._0._._1/conv1d_3/conv1d/required_space_to_batch_paddings/crops/0/0", "op": "Const", "attr": {"dtype": {"type": "DT_INT32"}, "value": {"tensor": {"dtype": "DT_INT32", "tensorShape": {}}}}}, {"name": "StatefulPartitionedCall/sequential_4/residual_stack_._0._._0/shortcut/conv1d/ExpandDims/dim", "op": "Const", "attr": {"dtype": {"type": "DT_INT32"}, "value": {"tensor": {"dtype": "DT_INT32", "tensorShape": {}}}}}, {"name": "StatefulPartitionedCall/sequential_4/residual_stack_._0._._0/shortcut/conv1d/ExpandDims_1", "op": "Const", "attr": {"dtype": {"type": "DT_FLOAT"}, "value": {"tensor": {"dtype": "DT_FLOAT", "tensorShape": {"dim": [{"size": "1"}, {"size": "1"}, {"size": "192"}, {"size": "192"}]}}}}}, {"name": "unknown_8", "op": "Const", "attr": {"dtype": {"type": "DT_FLOAT"}, "value": {"tensor": {"dtype": "DT_FLOAT", "tensorShape": {"dim": [{"size": "192"}]}}}}}, {"name": "StatefulPartitionedCall/sequential_4/conv_transpose_._0/conv2d_transpose/strided_slice/stack", "op": "Const", "attr": {"dtype": {"type": "DT_INT32"}, "value": {"tensor": {"dtype": "DT_INT32", "tensorShape": {"dim": [{"size": "1"}]}}}}}, {"name": "StatefulPartitionedCall/sequential_4/conv_transpose_._0/conv2d_transpose/strided_slice/stack_1", "op": "Const", "attr": {"value": {"tensor": {"dtype": "DT_INT32", "tensorShape": {"dim": [{"size": "1"}]}}}, "dtype": {"type": "DT_INT32"}}}, {"name": "StatefulPartitionedCall/sequential_4/conv_transpose_._0/conv2d_transpose/strided_slice/stack_2", "op": "Const", "attr": {"dtype": {"type": "DT_INT32"}, "value": {"tensor": {"dtype": "DT_INT32", "tensorShape": {"dim": [{"size": "1"}]}}}}}, {"name": "StatefulPartitionedCall/sequential_4/conv_transpose_._0/conv2d_transpose/strided_slice_1/stack", "op": "Const", "attr": {"value": {"tensor": {"dtype": "DT_INT32", "tensorShape": {"dim": [{"size": "1"}]}}}, "dtype": {"type": "DT_INT32"}}}, {"name": "StatefulPartitionedCall/sequential_4/conv_transpose_._0/conv2d_transpose/strided_slice_1/stack_1", "op": "Const", "attr": {"dtype": {"type": "DT_INT32"}, "value": {"tensor": {"dtype": "DT_INT32", "tensorShape": {"dim": [{"size": "1"}]}}}}}, {"name": "StatefulPartitionedCall/sequential_4/conv_transpose_._0/conv2d_transpose/strided_slice_1/stack_2", "op": "Const", "attr": {"dtype": {"type": "DT_INT32"}, "value": {"tensor": {"dtype": "DT_INT32", "tensorShape": {"dim": [{"size": "1"}]}}}}}, {"name": "StatefulPartitionedCall/sequential_4/conv_transpose_._0/conv2d_transpose/mul/y", "op": "Const", "attr": {"dtype": {"type": "DT_INT32"}, "value": {"tensor": {"dtype": "DT_INT32", "tensorShape": {}}}}}, {"name": "StatefulPartitionedCall/sequential_4/conv_transpose_._0/conv2d_transpose/stack/2", "op": "Const", "attr": {"dtype": {"type": "DT_INT32"}, "value": {"tensor": {"dtype": "DT_INT32", "tensorShape": {}}}}}, {"name": "StatefulPartitionedCall/sequential_4/conv_transpose_._0/conv2d_transpose/stack/3", "op": "Const", "attr": {"dtype": {"type": "DT_INT32"}, "value": {"tensor": {"dtype": "DT_INT32", "tensorShape": {}}}}}, {"name": "unknown_1", "op": "Const", "attr": {"value": {"tensor": {"dtype": "DT_FLOAT", "tensorShape": {"dim": [{"size": "16"}, {"size": "1"}, {"size": "192"}, {"size": "384"}]}}}, "dtype": {"type": "DT_FLOAT"}}}, {"name": "StatefulPartitionedCall/sequential_4/first_reflect_padding/MirrorPad/paddings", "op": "Const", "attr": {"value": {"tensor": {"dtype": "DT_INT32", "tensorShape": {"dim": [{"size": "3"}, {"size": "2"}]}}}, "dtype": {"type": "DT_INT32"}}}, {"name": "StatefulPartitionedCall/sequential_4/conv1d/conv1d/ExpandDims/dim", "op": "Const", "attr": {"dtype": {"type": "DT_INT32"}, "value": {"tensor": {"dtype": "DT_INT32", "tensorShape": {}}}}}, {"name": "StatefulPartitionedCall/sequential_4/conv1d/conv1d/ExpandDims_1", "op": "Const", "attr": {"value": {"tensor": {"dtype": "DT_FLOAT", "tensorShape": {"dim": [{"size": "1"}, {"size": "7"}, {"size": "80"}, {"size": "384"}]}}}, "dtype": {"type": "DT_FLOAT"}}}, {"name": "unknown_0", "op": "Const", "attr": {"value": {"tensor": {"dtype": "DT_FLOAT", "tensorShape": {"dim": [{"size": "384"}]}}}, "dtype": {"type": "DT_FLOAT"}}}, {"name": "StatefulPartitionedCall/sequential_4/conv_transpose_._0/ExpandDims/dim", "op": "Const", "attr": {"dtype": {"type": "DT_INT32"}, "value": {"tensor": {"dtype": "DT_INT32", "tensorShape": {}}}}}, {"name": "unknown_2", "op": "Const", "attr": {"dtype": {"type": "DT_FLOAT"}, "value": {"tensor": {"dtype": "DT_FLOAT", "tensorShape": {"dim": [{"size": "192"}]}}}}}, {"name": "StatefulPartitionedCall/sequential_4/residual_stack_._0._._0/tf_reflection_pad1d/MirrorPad/paddings", "op": "Const", "attr": {"value": {"tensor": {"dtype": "DT_INT32", "tensorShape": {"dim": [{"size": "3"}, {"size": "2"}]}}}, "dtype": {"type": "DT_INT32"}}}, {"name": "StatefulPartitionedCall/sequential_4/residual_stack_._0._._0/conv1d_1/conv1d/ExpandDims/dim", "op": "Const", "attr": {"value": {"tensor": {"dtype": "DT_INT32", "tensorShape": {}}}, "dtype": {"type": "DT_INT32"}}}, {"name": "StatefulPartitionedCall/sequential_4/residual_stack_._0._._0/conv1d_1/conv1d/ExpandDims_1", "op": "Const", "attr": {"value": {"tensor": {"dtype": "DT_FLOAT", "tensorShape": {"dim": [{"size": "1"}, {"size": "3"}, {"size": "192"}, {"size": "192"}]}}}, "dtype": {"type": "DT_FLOAT"}}}, {"name": "unknown_4", "op": "Const", "attr": {"value": {"tensor": {"dtype": "DT_FLOAT", "tensorShape": {"dim": [{"size": "192"}]}}}, "dtype": {"type": "DT_FLOAT"}}}, {"name": "StatefulPartitionedCall/sequential_4/residual_stack_._0._._0/conv1d_2/conv1d/ExpandDims/dim", "op": "Const", "attr": {"value": {"tensor": {"dtype": "DT_INT32", "tensorShape": {}}}, "dtype": {"type": "DT_INT32"}}}, {"name": "StatefulPartitionedCall/sequential_4/residual_stack_._0._._0/conv1d_2/conv1d/ExpandDims_1", "op": "Const", "attr": {"value": {"tensor": {"dtype": "DT_FLOAT", "tensorShape": {"dim": [{"size": "1"}, {"size": "1"}, {"size": "192"}, {"size": "192"}]}}}, "dtype": {"type": "DT_FLOAT"}}}, {"name": "unknown_6", "op": "Const", "attr": {"dtype": {"type": "DT_FLOAT"}, "value": {"tensor": {"dtype": "DT_FLOAT", "tensorShape": {"dim": [{"size": "192"}]}}}}}, {"name": "StatefulPartitionedCall/sequential_4/residual_stack_._0._._1/tf_reflection_pad1d_1/MirrorPad/paddings", "op": "Const", "attr": {"value": {"tensor": {"dtype": "DT_INT32", "tensorShape": {"dim": [{"size": "3"}, {"size": "2"}]}}}, "dtype": {"type": "DT_INT32"}}}, {"name": "StatefulPartitionedCall/sequential_4/residual_stack_._0._._1/conv1d_3/conv1d/strided_slice/stack", "op": "Const", "attr": {"value": {"tensor": {"dtype": "DT_INT32", "tensorShape": {"dim": [{"size": "1"}]}}}, "dtype": {"type": "DT_INT32"}}}, {"name": "StatefulPartitionedCall/sequential_4/residual_stack_._0._._1/conv1d_3/conv1d/strided_slice/stack_1", "op": "Const", "attr": {"value": {"tensor": {"dtype": "DT_INT32", "tensorShape": {"dim": [{"size": "1"}]}}}, "dtype": {"type": "DT_INT32"}}}, {"name": "StatefulPartitionedCall/sequential_4/residual_stack_._0._._1/conv1d_3/conv1d/strided_slice/stack_2", "op": "Const", "attr": {"value": {"tensor": {"dtype": "DT_INT32", "tensorShape": {"dim": [{"size": "1"}]}}}, "dtype": {"type": "DT_INT32"}}}, {"name": "StatefulPartitionedCall/sequential_4/residual_stack_._0._._1/conv1d_3/conv1d/dilation_rate", "op": "Const", "attr": {"dtype": {"type": "DT_INT32"}, "value": {"tensor": {"dtype": "DT_INT32", "tensorShape": {"dim": [{"size": "1"}]}}}}}, {"name": "StatefulPartitionedCall/sequential_4/residual_stack_._0._._1/conv1d_3/conv1d/required_space_to_batch_paddings/strided_slice_4/stack", "op": "Const", "attr": {"dtype": {"type": "DT_INT32"}, "value": {"tensor": {"dtype": "DT_INT32", "tensorShape": {"dim": [{"size": "1"}]}}}}}, {"name": "StatefulPartitionedCall/sequential_4/residual_stack_._0._._1/conv1d_3/conv1d/required_space_to_batch_paddings/strided_slice_4/stack_1", "op": "Const", "attr": {"value": {"tensor": {"dtype": "DT_INT32", "tensorShape": {"dim": [{"size": "1"}]}}}, "dtype": {"type": "DT_INT32"}}}, {"name": "StatefulPartitionedCall/sequential_4/residual_stack_._0._._1/conv1d_3/conv1d/required_space_to_batch_paddings/strided_slice_4/stack_2", "op": "Const", "attr": {"dtype": {"type": "DT_INT32"}, "value": {"tensor": {"dtype": "DT_INT32", "tensorShape": {"dim": [{"size": "1"}]}}}}}, {"name": "unknown_10", "op": "Const", "attr": {"dtype": {"type": "DT_FLOAT"}, "value": {"tensor": {"dtype": "DT_FLOAT", "tensorShape": {"dim": [{"size": "192"}]}}}}}, {"name": "StatefulPartitionedCall/sequential_4/residual_stack_._0._._1/conv1d_4/conv1d/ExpandDims/dim", "op": "Const", "attr": {"dtype": {"type": "DT_INT32"}, "value": {"tensor": {"dtype": "DT_INT32", "tensorShape": {}}}}}, {"name": "StatefulPartitionedCall/sequential_4/residual_stack_._0._._1/conv1d_4/conv1d/ExpandDims_1", "op": "Const", "attr": {"dtype": {"type": "DT_FLOAT"}, "value": {"tensor": {"dtype": "DT_FLOAT", "tensorShape": {"dim": [{"size": "1"}, {"size": "1"}, {"size": "192"}, {"size": "192"}]}}}}}, {"name": "unknown_12", "op": "Const", "attr": {"dtype": {"type": "DT_FLOAT"}, "value": {"tensor": {"dtype": "DT_FLOAT", "tensorShape": {"dim": [{"size": "192"}]}}}}}, {"name": "StatefulPartitionedCall/sequential_4/residual_stack_._0._._2/tf_reflection_pad1d_2/MirrorPad/paddings", "op": "Const", "attr": {"value": {"tensor": {"dtype": "DT_INT32", "tensorShape": {"dim": [{"size": "3"}, {"size": "2"}]}}}, "dtype": {"type": "DT_INT32"}}}, {"name": "StatefulPartitionedCall/sequential_4/residual_stack_._0._._2/conv1d_5/conv1d/strided_slice/stack", "op": "Const", "attr": {"dtype": {"type": "DT_INT32"}, "value": {"tensor": {"dtype": "DT_INT32", "tensorShape": {"dim": [{"size": "1"}]}}}}}, {"name": "StatefulPartitionedCall/sequential_4/residual_stack_._0._._2/conv1d_5/conv1d/strided_slice/stack_1", "op": "Const", "attr": {"dtype": {"type": "DT_INT32"}, "value": {"tensor": {"dtype": "DT_INT32", "tensorShape": {"dim": [{"size": "1"}]}}}}}, {"name": "StatefulPartitionedCall/sequential_4/residual_stack_._0._._2/conv1d_5/conv1d/strided_slice/stack_2", "op": "Const", "attr": {"dtype": {"type": "DT_INT32"}, "value": {"tensor": {"dtype": "DT_INT32", "tensorShape": {"dim": [{"size": "1"}]}}}}}, {"name": "StatefulPartitionedCall/sequential_4/residual_stack_._0._._2/conv1d_5/conv1d/dilation_rate", "op": "Const", "attr": {"dtype": {"type": "DT_INT32"}, "value": {"tensor": {"dtype": "DT_INT32", "tensorShape": {"dim": [{"size": "1"}]}}}}}, {"name": "StatefulPartitionedCall/sequential_4/residual_stack_._0._._2/conv1d_5/conv1d/required_space_to_batch_paddings/strided_slice_4/stack", "op": "Const", "attr": {"dtype": {"type": "DT_INT32"}, "value": {"tensor": {"dtype": "DT_INT32", "tensorShape": {"dim": [{"size": "1"}]}}}}}, {"name": "StatefulPartitionedCall/sequential_4/residual_stack_._0._._2/conv1d_5/conv1d/required_space_to_batch_paddings/strided_slice_4/stack_1", "op": "Const", "attr": {"dtype": {"type": "DT_INT32"}, "value": {"tensor": {"dtype": "DT_INT32", "tensorShape": {"dim": [{"size": "1"}]}}}}}, {"name": "StatefulPartitionedCall/sequential_4/residual_stack_._0._._2/conv1d_5/conv1d/required_space_to_batch_paddings/strided_slice_4/stack_2", "op": "Const", "attr": {"dtype": {"type": "DT_INT32"}, "value": {"tensor": {"dtype": "DT_INT32", "tensorShape": {"dim": [{"size": "1"}]}}}}}, {"name": "unknown_16", "op": "Const", "attr": {"value": {"tensor": {"dtype": "DT_FLOAT", "tensorShape": {"dim": [{"size": "192"}]}}}, "dtype": {"type": "DT_FLOAT"}}}, {"name": "StatefulPartitionedCall/sequential_4/residual_stack_._0._._2/conv1d_6/conv1d/ExpandDims/dim", "op": "Const", "attr": {"dtype": {"type": "DT_INT32"}, "value": {"tensor": {"dtype": "DT_INT32", "tensorShape": {}}}}}, {"name": "StatefulPartitionedCall/sequential_4/residual_stack_._0._._2/conv1d_6/conv1d/ExpandDims_1", "op": "Const", "attr": {"dtype": {"type": "DT_FLOAT"}, "value": {"tensor": {"dtype": "DT_FLOAT", "tensorShape": {"dim": [{"size": "1"}, {"size": "1"}, {"size": "192"}, {"size": "192"}]}}}}}, {"name": "unknown_18", "op": "Const", "attr": {"dtype": {"type": "DT_FLOAT"}, "value": {"tensor": {"dtype": "DT_FLOAT", "tensorShape": {"dim": [{"size": "192"}]}}}}}, {"name": "StatefulPartitionedCall/sequential_4/residual_stack_._0._._3/tf_reflection_pad1d_3/MirrorPad/paddings", "op": "Const", "attr": {"value": {"tensor": {"dtype": "DT_INT32", "tensorShape": {"dim": [{"size": "3"}, {"size": "2"}]}}}, "dtype": {"type": "DT_INT32"}}}, {"name": "StatefulPartitionedCall/sequential_4/residual_stack_._0._._3/conv1d_7/conv1d/strided_slice/stack", "op": "Const", "attr": {"dtype": {"type": "DT_INT32"}, "value": {"tensor": {"dtype": "DT_INT32", "tensorShape": {"dim": [{"size": "1"}]}}}}}, {"name": "StatefulPartitionedCall/sequential_4/residual_stack_._0._._3/conv1d_7/conv1d/strided_slice/stack_1", "op": "Const", "attr": {"value": {"tensor": {"dtype": "DT_INT32", "tensorShape": {"dim": [{"size": "1"}]}}}, "dtype": {"type": "DT_INT32"}}}, {"name": "StatefulPartitionedCall/sequential_4/residual_stack_._0._._3/conv1d_7/conv1d/strided_slice/stack_2", "op": "Const", "attr": {"value": {"tensor": {"dtype": "DT_INT32", "tensorShape": {"dim": [{"size": "1"}]}}}, "dtype": {"type": "DT_INT32"}}}, {"name": "StatefulPartitionedCall/sequential_4/residual_stack_._0._._3/conv1d_7/conv1d/dilation_rate", "op": "Const", "attr": {"dtype": {"type": "DT_INT32"}, "value": {"tensor": {"dtype": "DT_INT32", "tensorShape": {"dim": [{"size": "1"}]}}}}}, {"name": "StatefulPartitionedCall/sequential_4/residual_stack_._0._._3/conv1d_7/conv1d/required_space_to_batch_paddings/strided_slice_4/stack", "op": "Const", "attr": {"value": {"tensor": {"dtype": "DT_INT32", "tensorShape": {"dim": [{"size": "1"}]}}}, "dtype": {"type": "DT_INT32"}}}, {"name": "StatefulPartitionedCall/sequential_4/residual_stack_._0._._3/conv1d_7/conv1d/required_space_to_batch_paddings/strided_slice_4/stack_1", "op": "Const", "attr": {"value": {"tensor": {"dtype": "DT_INT32", "tensorShape": {"dim": [{"size": "1"}]}}}, "dtype": {"type": "DT_INT32"}}}, {"name": "StatefulPartitionedCall/sequential_4/residual_stack_._0._._3/conv1d_7/conv1d/required_space_to_batch_paddings/strided_slice_4/stack_2", "op": "Const", "attr": {"value": {"tensor": {"dtype": "DT_INT32", "tensorShape": {"dim": [{"size": "1"}]}}}, "dtype": {"type": "DT_INT32"}}}, {"name": "unknown_22", "op": "Const", "attr": {"dtype": {"type": "DT_FLOAT"}, "value": {"tensor": {"dtype": "DT_FLOAT", "tensorShape": {"dim": [{"size": "192"}]}}}}}, {"name": "StatefulPartitionedCall/sequential_4/residual_stack_._0._._3/conv1d_8/conv1d/ExpandDims/dim", "op": "Const", "attr": {"dtype": {"type": "DT_INT32"}, "value": {"tensor": {"dtype": "DT_INT32", "tensorShape": {}}}}}, {"name": "StatefulPartitionedCall/sequential_4/residual_stack_._0._._3/conv1d_8/conv1d/ExpandDims_1", "op": "Const", "attr": {"value": {"tensor": {"dtype": "DT_FLOAT", "tensorShape": {"dim": [{"size": "1"}, {"size": "1"}, {"size": "192"}, {"size": "192"}]}}}, "dtype": {"type": "DT_FLOAT"}}}, {"name": "unknown_24", "op": "Const", "attr": {"value": {"tensor": {"dtype": "DT_FLOAT", "tensorShape": {"dim": [{"size": "192"}]}}}, "dtype": {"type": "DT_FLOAT"}}}, {"name": "StatefulPartitionedCall/sequential_4/conv_transpose_._1/ExpandDims/dim", "op": "Const", "attr": {"dtype": {"type": "DT_INT32"}, "value": {"tensor": {"dtype": "DT_INT32", "tensorShape": {}}}}}, {"name": "unknown_28", "op": "Const", "attr": {"dtype": {"type": "DT_FLOAT"}, "value": {"tensor": {"dtype": "DT_FLOAT", "tensorShape": {"dim": [{"size": "96"}]}}}}}, {"name": "StatefulPartitionedCall/sequential_4/residual_stack_._1._._0/tf_reflection_pad1d_4/MirrorPad/paddings", "op": "Const", "attr": {"dtype": {"type": "DT_INT32"}, "value": {"tensor": {"dtype": "DT_INT32", "tensorShape": {"dim": [{"size": "3"}, {"size": "2"}]}}}}}, {"name": "StatefulPartitionedCall/sequential_4/residual_stack_._1._._0/conv1d_9/conv1d/ExpandDims/dim", "op": "Const", "attr": {"dtype": {"type": "DT_INT32"}, "value": {"tensor": {"dtype": "DT_INT32", "tensorShape": {}}}}}, {"name": "StatefulPartitionedCall/sequential_4/residual_stack_._1._._0/conv1d_9/conv1d/ExpandDims_1", "op": "Const", "attr": {"dtype": {"type": "DT_FLOAT"}, "value": {"tensor": {"dtype": "DT_FLOAT", "tensorShape": {"dim": [{"size": "1"}, {"size": "3"}, {"size": "96"}, {"size": "96"}]}}}}}, {"name": "unknown_30", "op": "Const", "attr": {"value": {"tensor": {"dtype": "DT_FLOAT", "tensorShape": {"dim": [{"size": "96"}]}}}, "dtype": {"type": "DT_FLOAT"}}}, {"name": "StatefulPartitionedCall/sequential_4/residual_stack_._1._._0/conv1d_10/conv1d/ExpandDims/dim", "op": "Const", "attr": {"value": {"tensor": {"dtype": "DT_INT32", "tensorShape": {}}}, "dtype": {"type": "DT_INT32"}}}, {"name": "StatefulPartitionedCall/sequential_4/residual_stack_._1._._0/conv1d_10/conv1d/ExpandDims_1", "op": "Const", "attr": {"dtype": {"type": "DT_FLOAT"}, "value": {"tensor": {"dtype": "DT_FLOAT", "tensorShape": {"dim": [{"size": "1"}, {"size": "1"}, {"size": "96"}, {"size": "96"}]}}}}}, {"name": "unknown_32", "op": "Const", "attr": {"value": {"tensor": {"dtype": "DT_FLOAT", "tensorShape": {"dim": [{"size": "96"}]}}}, "dtype": {"type": "DT_FLOAT"}}}, {"name": "StatefulPartitionedCall/sequential_4/residual_stack_._1._._1/tf_reflection_pad1d_5/MirrorPad/paddings", "op": "Const", "attr": {"dtype": {"type": "DT_INT32"}, "value": {"tensor": {"dtype": "DT_INT32", "tensorShape": {"dim": [{"size": "3"}, {"size": "2"}]}}}}}, {"name": "StatefulPartitionedCall/sequential_4/residual_stack_._1._._1/conv1d_11/conv1d/strided_slice/stack", "op": "Const", "attr": {"dtype": {"type": "DT_INT32"}, "value": {"tensor": {"dtype": "DT_INT32", "tensorShape": {"dim": [{"size": "1"}]}}}}}, {"name": "StatefulPartitionedCall/sequential_4/residual_stack_._1._._1/conv1d_11/conv1d/strided_slice/stack_1", "op": "Const", "attr": {"value": {"tensor": {"dtype": "DT_INT32", "tensorShape": {"dim": [{"size": "1"}]}}}, "dtype": {"type": "DT_INT32"}}}, {"name": "StatefulPartitionedCall/sequential_4/residual_stack_._1._._1/conv1d_11/conv1d/strided_slice/stack_2", "op": "Const", "attr": {"dtype": {"type": "DT_INT32"}, "value": {"tensor": {"dtype": "DT_INT32", "tensorShape": {"dim": [{"size": "1"}]}}}}}, {"name": "StatefulPartitionedCall/sequential_4/residual_stack_._1._._1/conv1d_11/conv1d/dilation_rate", "op": "Const", "attr": {"value": {"tensor": {"dtype": "DT_INT32", "tensorShape": {"dim": [{"size": "1"}]}}}, "dtype": {"type": "DT_INT32"}}}, {"name": "StatefulPartitionedCall/sequential_4/residual_stack_._1._._1/conv1d_11/conv1d/required_space_to_batch_paddings/strided_slice_4/stack", "op": "Const", "attr": {"dtype": {"type": "DT_INT32"}, "value": {"tensor": {"dtype": "DT_INT32", "tensorShape": {"dim": [{"size": "1"}]}}}}}, {"name": "StatefulPartitionedCall/sequential_4/residual_stack_._1._._1/conv1d_11/conv1d/required_space_to_batch_paddings/strided_slice_4/stack_1", "op": "Const", "attr": {"value": {"tensor": {"dtype": "DT_INT32", "tensorShape": {"dim": [{"size": "1"}]}}}, "dtype": {"type": "DT_INT32"}}}, {"name": "StatefulPartitionedCall/sequential_4/residual_stack_._1._._1/conv1d_11/conv1d/required_space_to_batch_paddings/strided_slice_4/stack_2", "op": "Const", "attr": {"dtype": {"type": "DT_INT32"}, "value": {"tensor": {"dtype": "DT_INT32", "tensorShape": {"dim": [{"size": "1"}]}}}}}, {"name": "unknown_36", "op": "Const", "attr": {"dtype": {"type": "DT_FLOAT"}, "value": {"tensor": {"dtype": "DT_FLOAT", "tensorShape": {"dim": [{"size": "96"}]}}}}}, {"name": "StatefulPartitionedCall/sequential_4/residual_stack_._1._._1/conv1d_12/conv1d/ExpandDims/dim", "op": "Const", "attr": {"value": {"tensor": {"dtype": "DT_INT32", "tensorShape": {}}}, "dtype": {"type": "DT_INT32"}}}, {"name": "StatefulPartitionedCall/sequential_4/residual_stack_._1._._1/conv1d_12/conv1d/ExpandDims_1", "op": "Const", "attr": {"dtype": {"type": "DT_FLOAT"}, "value": {"tensor": {"dtype": "DT_FLOAT", "tensorShape": {"dim": [{"size": "1"}, {"size": "1"}, {"size": "96"}, {"size": "96"}]}}}}}, {"name": "unknown_38", "op": "Const", "attr": {"value": {"tensor": {"dtype": "DT_FLOAT", "tensorShape": {"dim": [{"size": "96"}]}}}, "dtype": {"type": "DT_FLOAT"}}}, {"name": "StatefulPartitionedCall/sequential_4/residual_stack_._1._._2/tf_reflection_pad1d_6/MirrorPad/paddings", "op": "Const", "attr": {"value": {"tensor": {"dtype": "DT_INT32", "tensorShape": {"dim": [{"size": "3"}, {"size": "2"}]}}}, "dtype": {"type": "DT_INT32"}}}, {"name": "StatefulPartitionedCall/sequential_4/residual_stack_._1._._2/conv1d_13/conv1d/strided_slice/stack", "op": "Const", "attr": {"dtype": {"type": "DT_INT32"}, "value": {"tensor": {"dtype": "DT_INT32", "tensorShape": {"dim": [{"size": "1"}]}}}}}, {"name": "StatefulPartitionedCall/sequential_4/residual_stack_._1._._2/conv1d_13/conv1d/strided_slice/stack_1", "op": "Const", "attr": {"dtype": {"type": "DT_INT32"}, "value": {"tensor": {"dtype": "DT_INT32", "tensorShape": {"dim": [{"size": "1"}]}}}}}, {"name": "StatefulPartitionedCall/sequential_4/residual_stack_._1._._2/conv1d_13/conv1d/strided_slice/stack_2", "op": "Const", "attr": {"value": {"tensor": {"dtype": "DT_INT32", "tensorShape": {"dim": [{"size": "1"}]}}}, "dtype": {"type": "DT_INT32"}}}, {"name": "StatefulPartitionedCall/sequential_4/residual_stack_._1._._2/conv1d_13/conv1d/dilation_rate", "op": "Const", "attr": {"value": {"tensor": {"dtype": "DT_INT32", "tensorShape": {"dim": [{"size": "1"}]}}}, "dtype": {"type": "DT_INT32"}}}, {"name": "StatefulPartitionedCall/sequential_4/residual_stack_._1._._2/conv1d_13/conv1d/required_space_to_batch_paddings/strided_slice_4/stack", "op": "Const", "attr": {"dtype": {"type": "DT_INT32"}, "value": {"tensor": {"dtype": "DT_INT32", "tensorShape": {"dim": [{"size": "1"}]}}}}}, {"name": "StatefulPartitionedCall/sequential_4/residual_stack_._1._._2/conv1d_13/conv1d/required_space_to_batch_paddings/strided_slice_4/stack_1", "op": "Const", "attr": {"dtype": {"type": "DT_INT32"}, "value": {"tensor": {"dtype": "DT_INT32", "tensorShape": {"dim": [{"size": "1"}]}}}}}, {"name": "StatefulPartitionedCall/sequential_4/residual_stack_._1._._2/conv1d_13/conv1d/required_space_to_batch_paddings/strided_slice_4/stack_2", "op": "Const", "attr": {"dtype": {"type": "DT_INT32"}, "value": {"tensor": {"dtype": "DT_INT32", "tensorShape": {"dim": [{"size": "1"}]}}}}}, {"name": "unknown_42", "op": "Const", "attr": {"value": {"tensor": {"dtype": "DT_FLOAT", "tensorShape": {"dim": [{"size": "96"}]}}}, "dtype": {"type": "DT_FLOAT"}}}, {"name": "StatefulPartitionedCall/sequential_4/residual_stack_._1._._2/conv1d_14/conv1d/ExpandDims/dim", "op": "Const", "attr": {"dtype": {"type": "DT_INT32"}, "value": {"tensor": {"dtype": "DT_INT32", "tensorShape": {}}}}}, {"name": "StatefulPartitionedCall/sequential_4/residual_stack_._1._._2/conv1d_14/conv1d/ExpandDims_1", "op": "Const", "attr": {"dtype": {"type": "DT_FLOAT"}, "value": {"tensor": {"dtype": "DT_FLOAT", "tensorShape": {"dim": [{"size": "1"}, {"size": "1"}, {"size": "96"}, {"size": "96"}]}}}}}, {"name": "unknown_44", "op": "Const", "attr": {"value": {"tensor": {"dtype": "DT_FLOAT", "tensorShape": {"dim": [{"size": "96"}]}}}, "dtype": {"type": "DT_FLOAT"}}}, {"name": "StatefulPartitionedCall/sequential_4/residual_stack_._1._._3/tf_reflection_pad1d_7/MirrorPad/paddings", "op": "Const", "attr": {"value": {"tensor": {"dtype": "DT_INT32", "tensorShape": {"dim": [{"size": "3"}, {"size": "2"}]}}}, "dtype": {"type": "DT_INT32"}}}, {"name": "StatefulPartitionedCall/sequential_4/residual_stack_._1._._3/conv1d_15/conv1d/strided_slice/stack", "op": "Const", "attr": {"value": {"tensor": {"dtype": "DT_INT32", "tensorShape": {"dim": [{"size": "1"}]}}}, "dtype": {"type": "DT_INT32"}}}, {"name": "StatefulPartitionedCall/sequential_4/residual_stack_._1._._3/conv1d_15/conv1d/strided_slice/stack_1", "op": "Const", "attr": {"value": {"tensor": {"dtype": "DT_INT32", "tensorShape": {"dim": [{"size": "1"}]}}}, "dtype": {"type": "DT_INT32"}}}, {"name": "StatefulPartitionedCall/sequential_4/residual_stack_._1._._3/conv1d_15/conv1d/strided_slice/stack_2", "op": "Const", "attr": {"value": {"tensor": {"dtype": "DT_INT32", "tensorShape": {"dim": [{"size": "1"}]}}}, "dtype": {"type": "DT_INT32"}}}, {"name": "StatefulPartitionedCall/sequential_4/residual_stack_._1._._3/conv1d_15/conv1d/dilation_rate", "op": "Const", "attr": {"value": {"tensor": {"dtype": "DT_INT32", "tensorShape": {"dim": [{"size": "1"}]}}}, "dtype": {"type": "DT_INT32"}}}, {"name": "StatefulPartitionedCall/sequential_4/residual_stack_._1._._3/conv1d_15/conv1d/required_space_to_batch_paddings/strided_slice_4/stack", "op": "Const", "attr": {"value": {"tensor": {"dtype": "DT_INT32", "tensorShape": {"dim": [{"size": "1"}]}}}, "dtype": {"type": "DT_INT32"}}}, {"name": "StatefulPartitionedCall/sequential_4/residual_stack_._1._._3/conv1d_15/conv1d/required_space_to_batch_paddings/strided_slice_4/stack_1", "op": "Const", "attr": {"value": {"tensor": {"dtype": "DT_INT32", "tensorShape": {"dim": [{"size": "1"}]}}}, "dtype": {"type": "DT_INT32"}}}, {"name": "StatefulPartitionedCall/sequential_4/residual_stack_._1._._3/conv1d_15/conv1d/required_space_to_batch_paddings/strided_slice_4/stack_2", "op": "Const", "attr": {"value": {"tensor": {"dtype": "DT_INT32", "tensorShape": {"dim": [{"size": "1"}]}}}, "dtype": {"type": "DT_INT32"}}}, {"name": "unknown_48", "op": "Const", "attr": {"value": {"tensor": {"dtype": "DT_FLOAT", "tensorShape": {"dim": [{"size": "96"}]}}}, "dtype": {"type": "DT_FLOAT"}}}, {"name": "StatefulPartitionedCall/sequential_4/residual_stack_._1._._3/conv1d_16/conv1d/ExpandDims/dim", "op": "Const", "attr": {"value": {"tensor": {"dtype": "DT_INT32", "tensorShape": {}}}, "dtype": {"type": "DT_INT32"}}}, {"name": "StatefulPartitionedCall/sequential_4/residual_stack_._1._._3/conv1d_16/conv1d/ExpandDims_1", "op": "Const", "attr": {"dtype": {"type": "DT_FLOAT"}, "value": {"tensor": {"dtype": "DT_FLOAT", "tensorShape": {"dim": [{"size": "1"}, {"size": "1"}, {"size": "96"}, {"size": "96"}]}}}}}, {"name": "unknown_50", "op": "Const", "attr": {"value": {"tensor": {"dtype": "DT_FLOAT", "tensorShape": {"dim": [{"size": "96"}]}}}, "dtype": {"type": "DT_FLOAT"}}}, {"name": "StatefulPartitionedCall/sequential_4/conv_transpose_._2/ExpandDims/dim", "op": "Const", "attr": {"value": {"tensor": {"dtype": "DT_INT32", "tensorShape": {}}}, "dtype": {"type": "DT_INT32"}}}, {"name": "unknown_54", "op": "Const", "attr": {"dtype": {"type": "DT_FLOAT"}, "value": {"tensor": {"dtype": "DT_FLOAT", "tensorShape": {"dim": [{"size": "48"}]}}}}}, {"name": "StatefulPartitionedCall/sequential_4/residual_stack_._2._._0/tf_reflection_pad1d_8/MirrorPad/paddings", "op": "Const", "attr": {"dtype": {"type": "DT_INT32"}, "value": {"tensor": {"dtype": "DT_INT32", "tensorShape": {"dim": [{"size": "3"}, {"size": "2"}]}}}}}, {"name": "StatefulPartitionedCall/sequential_4/residual_stack_._2._._0/conv1d_17/conv1d/ExpandDims/dim", "op": "Const", "attr": {"dtype": {"type": "DT_INT32"}, "value": {"tensor": {"dtype": "DT_INT32", "tensorShape": {}}}}}, {"name": "StatefulPartitionedCall/sequential_4/residual_stack_._2._._0/conv1d_17/conv1d/ExpandDims_1", "op": "Const", "attr": {"dtype": {"type": "DT_FLOAT"}, "value": {"tensor": {"dtype": "DT_FLOAT", "tensorShape": {"dim": [{"size": "1"}, {"size": "3"}, {"size": "48"}, {"size": "48"}]}}}}}, {"name": "unknown_56", "op": "Const", "attr": {"dtype": {"type": "DT_FLOAT"}, "value": {"tensor": {"dtype": "DT_FLOAT", "tensorShape": {"dim": [{"size": "48"}]}}}}}, {"name": "StatefulPartitionedCall/sequential_4/residual_stack_._2._._0/conv1d_18/conv1d/ExpandDims/dim", "op": "Const", "attr": {"dtype": {"type": "DT_INT32"}, "value": {"tensor": {"dtype": "DT_INT32", "tensorShape": {}}}}}, {"name": "StatefulPartitionedCall/sequential_4/residual_stack_._2._._0/conv1d_18/conv1d/ExpandDims_1", "op": "Const", "attr": {"dtype": {"type": "DT_FLOAT"}, "value": {"tensor": {"dtype": "DT_FLOAT", "tensorShape": {"dim": [{"size": "1"}, {"size": "1"}, {"size": "48"}, {"size": "48"}]}}}}}, {"name": "unknown_58", "op": "Const", "attr": {"dtype": {"type": "DT_FLOAT"}, "value": {"tensor": {"dtype": "DT_FLOAT", "tensorShape": {"dim": [{"size": "48"}]}}}}}, {"name": "StatefulPartitionedCall/sequential_4/residual_stack_._2._._1/tf_reflection_pad1d_9/MirrorPad/paddings", "op": "Const", "attr": {"dtype": {"type": "DT_INT32"}, "value": {"tensor": {"dtype": "DT_INT32", "tensorShape": {"dim": [{"size": "3"}, {"size": "2"}]}}}}}, {"name": "StatefulPartitionedCall/sequential_4/residual_stack_._2._._1/conv1d_19/conv1d/strided_slice/stack", "op": "Const", "attr": {"dtype": {"type": "DT_INT32"}, "value": {"tensor": {"dtype": "DT_INT32", "tensorShape": {"dim": [{"size": "1"}]}}}}}, {"name": "StatefulPartitionedCall/sequential_4/residual_stack_._2._._1/conv1d_19/conv1d/strided_slice/stack_1", "op": "Const", "attr": {"value": {"tensor": {"dtype": "DT_INT32", "tensorShape": {"dim": [{"size": "1"}]}}}, "dtype": {"type": "DT_INT32"}}}, {"name": "StatefulPartitionedCall/sequential_4/residual_stack_._2._._1/conv1d_19/conv1d/strided_slice/stack_2", "op": "Const", "attr": {"value": {"tensor": {"dtype": "DT_INT32", "tensorShape": {"dim": [{"size": "1"}]}}}, "dtype": {"type": "DT_INT32"}}}, {"name": "StatefulPartitionedCall/sequential_4/residual_stack_._2._._1/conv1d_19/conv1d/dilation_rate", "op": "Const", "attr": {"value": {"tensor": {"dtype": "DT_INT32", "tensorShape": {"dim": [{"size": "1"}]}}}, "dtype": {"type": "DT_INT32"}}}, {"name": "StatefulPartitionedCall/sequential_4/residual_stack_._2._._1/conv1d_19/conv1d/required_space_to_batch_paddings/strided_slice_4/stack", "op": "Const", "attr": {"dtype": {"type": "DT_INT32"}, "value": {"tensor": {"dtype": "DT_INT32", "tensorShape": {"dim": [{"size": "1"}]}}}}}, {"name": "StatefulPartitionedCall/sequential_4/residual_stack_._2._._1/conv1d_19/conv1d/required_space_to_batch_paddings/strided_slice_4/stack_1", "op": "Const", "attr": {"value": {"tensor": {"dtype": "DT_INT32", "tensorShape": {"dim": [{"size": "1"}]}}}, "dtype": {"type": "DT_INT32"}}}, {"name": "StatefulPartitionedCall/sequential_4/residual_stack_._2._._1/conv1d_19/conv1d/required_space_to_batch_paddings/strided_slice_4/stack_2", "op": "Const", "attr": {"dtype": {"type": "DT_INT32"}, "value": {"tensor": {"dtype": "DT_INT32", "tensorShape": {"dim": [{"size": "1"}]}}}}}, {"name": "unknown_62", "op": "Const", "attr": {"dtype": {"type": "DT_FLOAT"}, "value": {"tensor": {"dtype": "DT_FLOAT", "tensorShape": {"dim": [{"size": "48"}]}}}}}, {"name": "StatefulPartitionedCall/sequential_4/residual_stack_._2._._1/conv1d_20/conv1d/ExpandDims/dim", "op": "Const", "attr": {"dtype": {"type": "DT_INT32"}, "value": {"tensor": {"dtype": "DT_INT32", "tensorShape": {}}}}}, {"name": "StatefulPartitionedCall/sequential_4/residual_stack_._2._._1/conv1d_20/conv1d/ExpandDims_1", "op": "Const", "attr": {"dtype": {"type": "DT_FLOAT"}, "value": {"tensor": {"dtype": "DT_FLOAT", "tensorShape": {"dim": [{"size": "1"}, {"size": "1"}, {"size": "48"}, {"size": "48"}]}}}}}, {"name": "unknown_64", "op": "Const", "attr": {"dtype": {"type": "DT_FLOAT"}, "value": {"tensor": {"dtype": "DT_FLOAT", "tensorShape": {"dim": [{"size": "48"}]}}}}}, {"name": "StatefulPartitionedCall/sequential_4/residual_stack_._2._._2/tf_reflection_pad1d_10/MirrorPad/paddings", "op": "Const", "attr": {"dtype": {"type": "DT_INT32"}, "value": {"tensor": {"dtype": "DT_INT32", "tensorShape": {"dim": [{"size": "3"}, {"size": "2"}]}}}}}, {"name": "StatefulPartitionedCall/sequential_4/residual_stack_._2._._2/conv1d_21/conv1d/strided_slice/stack", "op": "Const", "attr": {"dtype": {"type": "DT_INT32"}, "value": {"tensor": {"dtype": "DT_INT32", "tensorShape": {"dim": [{"size": "1"}]}}}}}, {"name": "StatefulPartitionedCall/sequential_4/residual_stack_._2._._2/conv1d_21/conv1d/strided_slice/stack_1", "op": "Const", "attr": {"value": {"tensor": {"dtype": "DT_INT32", "tensorShape": {"dim": [{"size": "1"}]}}}, "dtype": {"type": "DT_INT32"}}}, {"name": "StatefulPartitionedCall/sequential_4/residual_stack_._2._._2/conv1d_21/conv1d/strided_slice/stack_2", "op": "Const", "attr": {"value": {"tensor": {"dtype": "DT_INT32", "tensorShape": {"dim": [{"size": "1"}]}}}, "dtype": {"type": "DT_INT32"}}}, {"name": "StatefulPartitionedCall/sequential_4/residual_stack_._2._._2/conv1d_21/conv1d/dilation_rate", "op": "Const", "attr": {"dtype": {"type": "DT_INT32"}, "value": {"tensor": {"dtype": "DT_INT32", "tensorShape": {"dim": [{"size": "1"}]}}}}}, {"name": "StatefulPartitionedCall/sequential_4/residual_stack_._2._._2/conv1d_21/conv1d/required_space_to_batch_paddings/strided_slice_4/stack", "op": "Const", "attr": {"value": {"tensor": {"dtype": "DT_INT32", "tensorShape": {"dim": [{"size": "1"}]}}}, "dtype": {"type": "DT_INT32"}}}, {"name": "StatefulPartitionedCall/sequential_4/residual_stack_._2._._2/conv1d_21/conv1d/required_space_to_batch_paddings/strided_slice_4/stack_1", "op": "Const", "attr": {"dtype": {"type": "DT_INT32"}, "value": {"tensor": {"dtype": "DT_INT32", "tensorShape": {"dim": [{"size": "1"}]}}}}}, {"name": "StatefulPartitionedCall/sequential_4/residual_stack_._2._._2/conv1d_21/conv1d/required_space_to_batch_paddings/strided_slice_4/stack_2", "op": "Const", "attr": {"value": {"tensor": {"dtype": "DT_INT32", "tensorShape": {"dim": [{"size": "1"}]}}}, "dtype": {"type": "DT_INT32"}}}, {"name": "unknown_68", "op": "Const", "attr": {"dtype": {"type": "DT_FLOAT"}, "value": {"tensor": {"dtype": "DT_FLOAT", "tensorShape": {"dim": [{"size": "48"}]}}}}}, {"name": "StatefulPartitionedCall/sequential_4/residual_stack_._2._._2/conv1d_22/conv1d/ExpandDims/dim", "op": "Const", "attr": {"dtype": {"type": "DT_INT32"}, "value": {"tensor": {"dtype": "DT_INT32", "tensorShape": {}}}}}, {"name": "StatefulPartitionedCall/sequential_4/residual_stack_._2._._2/conv1d_22/conv1d/ExpandDims_1", "op": "Const", "attr": {"value": {"tensor": {"dtype": "DT_FLOAT", "tensorShape": {"dim": [{"size": "1"}, {"size": "1"}, {"size": "48"}, {"size": "48"}]}}}, "dtype": {"type": "DT_FLOAT"}}}, {"name": "unknown_70", "op": "Const", "attr": {"value": {"tensor": {"dtype": "DT_FLOAT", "tensorShape": {"dim": [{"size": "48"}]}}}, "dtype": {"type": "DT_FLOAT"}}}, {"name": "StatefulPartitionedCall/sequential_4/residual_stack_._2._._3/tf_reflection_pad1d_11/MirrorPad/paddings", "op": "Const", "attr": {"value": {"tensor": {"dtype": "DT_INT32", "tensorShape": {"dim": [{"size": "3"}, {"size": "2"}]}}}, "dtype": {"type": "DT_INT32"}}}, {"name": "StatefulPartitionedCall/sequential_4/residual_stack_._2._._3/conv1d_23/conv1d/strided_slice/stack", "op": "Const", "attr": {"dtype": {"type": "DT_INT32"}, "value": {"tensor": {"dtype": "DT_INT32", "tensorShape": {"dim": [{"size": "1"}]}}}}}, {"name": "StatefulPartitionedCall/sequential_4/residual_stack_._2._._3/conv1d_23/conv1d/strided_slice/stack_1", "op": "Const", "attr": {"value": {"tensor": {"dtype": "DT_INT32", "tensorShape": {"dim": [{"size": "1"}]}}}, "dtype": {"type": "DT_INT32"}}}, {"name": "StatefulPartitionedCall/sequential_4/residual_stack_._2._._3/conv1d_23/conv1d/strided_slice/stack_2", "op": "Const", "attr": {"dtype": {"type": "DT_INT32"}, "value": {"tensor": {"dtype": "DT_INT32", "tensorShape": {"dim": [{"size": "1"}]}}}}}, {"name": "StatefulPartitionedCall/sequential_4/residual_stack_._2._._3/conv1d_23/conv1d/dilation_rate", "op": "Const", "attr": {"value": {"tensor": {"dtype": "DT_INT32", "tensorShape": {"dim": [{"size": "1"}]}}}, "dtype": {"type": "DT_INT32"}}}, {"name": "StatefulPartitionedCall/sequential_4/residual_stack_._2._._3/conv1d_23/conv1d/required_space_to_batch_paddings/strided_slice_4/stack", "op": "Const", "attr": {"value": {"tensor": {"dtype": "DT_INT32", "tensorShape": {"dim": [{"size": "1"}]}}}, "dtype": {"type": "DT_INT32"}}}, {"name": "StatefulPartitionedCall/sequential_4/residual_stack_._2._._3/conv1d_23/conv1d/required_space_to_batch_paddings/strided_slice_4/stack_1", "op": "Const", "attr": {"value": {"tensor": {"dtype": "DT_INT32", "tensorShape": {"dim": [{"size": "1"}]}}}, "dtype": {"type": "DT_INT32"}}}, {"name": "StatefulPartitionedCall/sequential_4/residual_stack_._2._._3/conv1d_23/conv1d/required_space_to_batch_paddings/strided_slice_4/stack_2", "op": "Const", "attr": {"dtype": {"type": "DT_INT32"}, "value": {"tensor": {"dtype": "DT_INT32", "tensorShape": {"dim": [{"size": "1"}]}}}}}, {"name": "unknown_74", "op": "Const", "attr": {"value": {"tensor": {"dtype": "DT_FLOAT", "tensorShape": {"dim": [{"size": "48"}]}}}, "dtype": {"type": "DT_FLOAT"}}}, {"name": "StatefulPartitionedCall/sequential_4/residual_stack_._2._._3/conv1d_24/conv1d/ExpandDims/dim", "op": "Const", "attr": {"dtype": {"type": "DT_INT32"}, "value": {"tensor": {"dtype": "DT_INT32", "tensorShape": {}}}}}, {"name": "StatefulPartitionedCall/sequential_4/residual_stack_._2._._3/conv1d_24/conv1d/ExpandDims_1", "op": "Const", "attr": {"dtype": {"type": "DT_FLOAT"}, "value": {"tensor": {"dtype": "DT_FLOAT", "tensorShape": {"dim": [{"size": "1"}, {"size": "1"}, {"size": "48"}, {"size": "48"}]}}}}}, {"name": "unknown_76", "op": "Const", "attr": {"value": {"tensor": {"dtype": "DT_FLOAT", "tensorShape": {"dim": [{"size": "48"}]}}}, "dtype": {"type": "DT_FLOAT"}}}, {"name": "StatefulPartitionedCall/sequential_4/last_reflect_padding/MirrorPad/paddings", "op": "Const", "attr": {"dtype": {"type": "DT_INT32"}, "value": {"tensor": {"dtype": "DT_INT32", "tensorShape": {"dim": [{"size": "3"}, {"size": "2"}]}}}}}, {"name": "StatefulPartitionedCall/sequential_4/conv1d_25/conv1d/ExpandDims/dim", "op": "Const", "attr": {"dtype": {"type": "DT_INT32"}, "value": {"tensor": {"dtype": "DT_INT32", "tensorShape": {}}}}}, {"name": "StatefulPartitionedCall/sequential_4/conv1d_25/conv1d/ExpandDims_1", "op": "Const", "attr": {"value": {"tensor": {"dtype": "DT_FLOAT", "tensorShape": {"dim": [{"size": "1"}, {"size": "7"}, {"size": "48"}, {"size": "4"}]}}}, "dtype": {"type": "DT_FLOAT"}}}, {"name": "unknown_80", "op": "Const", "attr": {"value": {"tensor": {"dtype": "DT_FLOAT", "tensorShape": {"dim": [{"size": "4"}]}}}, "dtype": {"type": "DT_FLOAT"}}}, {"name": "StatefulPartitionedCall/PartitionedCall/conv1d_transpose/ExpandDims/dim", "op": "Const", "attr": {"value": {"tensor": {"dtype": "DT_INT32", "tensorShape": {}}}, "dtype": {"type": "DT_INT32"}}}, {"name": "StatefulPartitionedCall/PartitionedCall/Pad/paddings", "op": "Const", "attr": {"value": {"tensor": {"dtype": "DT_INT32", "tensorShape": {"dim": [{"size": "3"}, {"size": "2"}]}}}, "dtype": {"type": "DT_INT32"}}}, {"name": "StatefulPartitionedCall/PartitionedCall/conv1d/ExpandDims/dim", "op": "Const", "attr": {"dtype": {"type": "DT_INT32"}, "value": {"tensor": {"dtype": "DT_INT32", "tensorShape": {}}}}}, {"name": "StatefulPartitionedCall/PartitionedCall/conv1d/ExpandDims_1", "op": "Const", "attr": {"value": {"tensor": {"dtype": "DT_FLOAT", "tensorShape": {"dim": [{"size": "1"}, {"size": "63"}, {"size": "4"}, {"size": "1"}]}}}, "dtype": {"type": "DT_FLOAT"}}}, {"name": "mels", "op": "Placeholder", "attr": {"dtype": {"type": "DT_FLOAT"}, "shape": {"shape": {"dim": [{"size": "-1"}, {"size": "-1"}, {"size": "80"}]}}}}, {"name": "StatefulPartitionedCall/sequential_4/first_reflect_padding/MirrorPad", "op": "MirrorPad", "input": ["mels", "StatefulPartitionedCall/sequential_4/first_reflect_padding/MirrorPad/paddings"], "attr": {"mode": {"s": "UkVGTEVDVA=="}, "Tpaddings": {"type": "DT_INT32"}, "T": {"type": "DT_FLOAT"}}}, {"name": "StatefulPartitionedCall/sequential_4/conv1d/conv1d/ExpandDims", "op": "ExpandDims", "input": ["StatefulPartitionedCall/sequential_4/first_reflect_padding/MirrorPad", "StatefulPartitionedCall/sequential_4/conv1d/conv1d/ExpandDims/dim"], "attr": {"Tdim": {"type": "DT_INT32"}, "T": {"type": "DT_FLOAT"}}}, {"name": "StatefulPartitionedCall/sequential_4/conv1d/conv1d", "op": "_FusedConv2D", "input": ["StatefulPartitionedCall/sequential_4/conv1d/conv1d/ExpandDims", "StatefulPartitionedCall/sequential_4/conv1d/conv1d/ExpandDims_1", "unknown_0"], "device": "/device:CPU:0", "attr": {"data_format": {"s": "TkhXQw=="}, "num_args": {"i": "1"}, "T": {"type": "DT_FLOAT"}, "padding": {"s": "VkFMSUQ="}, "strides": {"list": {"i": ["1", "1", "1", "1"]}}, "dilations": {"list": {"i": ["1", "1", "1", "1"]}}, "explicit_paddings": {"list": {}}, "epsilon": {"f": 0.0}, "use_cudnn_on_gpu": {"b": true}, "fused_ops": {"list": {"s": ["Qmlhc0FkZA=="]}}}}, {"name": "StatefulPartitionedCall/sequential_4/conv1d/BiasAdd", "op": "Squeeze", "input": ["StatefulPartitionedCall/sequential_4/conv1d/conv1d"], "attr": {"squeeze_dims": {"list": {"i": ["-3"]}}, "T": {"type": "DT_FLOAT"}}}, {"name": "StatefulPartitionedCall/sequential_4/leaky_re_lu/LeakyRelu", "op": "LeakyRelu", "input": ["StatefulPartitionedCall/sequential_4/conv1d/BiasAdd"], "attr": {"T": {"type": "DT_FLOAT"}, "alpha": {"f": 0.2}}}, {"name": "StatefulPartitionedCall/sequential_4/conv_transpose_._0/ExpandDims", "op": "ExpandDims", "input": ["StatefulPartitionedCall/sequential_4/leaky_re_lu/LeakyRelu", "StatefulPartitionedCall/sequential_4/conv_transpose_._0/ExpandDims/dim"], "attr": {"T": {"type": "DT_FLOAT"}, "Tdim": {"type": "DT_INT32"}}}, {"name": "StatefulPartitionedCall/sequential_4/conv_transpose_._0/conv2d_transpose/Shape", "op": "Shape", "input": ["StatefulPartitionedCall/sequential_4/conv_transpose_._0/ExpandDims"], "attr": {"out_type": {"type": "DT_INT32"}, "T": {"type": "DT_FLOAT"}}}, {"name": "StatefulPartitionedCall/sequential_4/conv_transpose_._0/conv2d_transpose/strided_slice", "op": "StridedSlice", "input": ["StatefulPartitionedCall/sequential_4/conv_transpose_._0/conv2d_transpose/Shape", "StatefulPartitionedCall/sequential_4/conv_transpose_._0/conv2d_transpose/strided_slice/stack", "StatefulPartitionedCall/sequential_4/conv_transpose_._0/conv2d_transpose/strided_slice/stack_1", "StatefulPartitionedCall/sequential_4/conv_transpose_._0/conv2d_transpose/strided_slice/stack_2"], "attr": {"new_axis_mask": {"i": "0"}, "T": {"type": "DT_INT32"}, "begin_mask": {"i": "0"}, "Index": {"type": "DT_INT32"}, "ellipsis_mask": {"i": "0"}, "end_mask": {"i": "0"}, "shrink_axis_mask": {"i": "1"}}}, {"name": "StatefulPartitionedCall/sequential_4/conv_transpose_._0/conv2d_transpose/strided_slice_1", "op": "StridedSlice", "input": ["StatefulPartitionedCall/sequential_4/conv_transpose_._0/conv2d_transpose/Shape", "StatefulPartitionedCall/sequential_4/conv_transpose_._0/conv2d_transpose/strided_slice_1/stack", "StatefulPartitionedCall/sequential_4/conv_transpose_._0/conv2d_transpose/strided_slice_1/stack_1", "StatefulPartitionedCall/sequential_4/conv_transpose_._0/conv2d_transpose/strided_slice_1/stack_2"], "attr": {"shrink_axis_mask": {"i": "1"}, "T": {"type": "DT_INT32"}, "Index": {"type": "DT_INT32"}, "ellipsis_mask": {"i": "0"}, "begin_mask": {"i": "0"}, "end_mask": {"i": "0"}, "new_axis_mask": {"i": "0"}}}, {"name": "StatefulPartitionedCall/sequential_4/conv_transpose_._0/conv2d_transpose/mul", "op": "Mul", "input": ["StatefulPartitionedCall/sequential_4/conv_transpose_._0/conv2d_transpose/strided_slice_1", "StatefulPartitionedCall/sequential_4/conv_transpose_._0/conv2d_transpose/mul/y"], "attr": {"T": {"type": "DT_INT32"}}}, {"name": "StatefulPartitionedCall/sequential_4/conv_transpose_._0/conv2d_transpose/stack", "op": "Pack", "input": ["StatefulPartitionedCall/sequential_4/conv_transpose_._0/conv2d_transpose/strided_slice", "StatefulPartitionedCall/sequential_4/conv_transpose_._0/conv2d_transpose/mul", "StatefulPartitionedCall/sequential_4/conv_transpose_._0/conv2d_transpose/stack/2", "StatefulPartitionedCall/sequential_4/conv_transpose_._0/conv2d_transpose/stack/3"], "attr": {"axis": {"i": "0"}, "T": {"type": "DT_INT32"}, "N": {"i": "4"}}}, {"name": "StatefulPartitionedCall/sequential_4/conv_transpose_._0/conv2d_transpose/conv2d_transpose", "op": "Conv2DBackpropInput", "input": ["StatefulPartitionedCall/sequential_4/conv_transpose_._0/conv2d_transpose/stack", "unknown_1", "StatefulPartitionedCall/sequential_4/conv_transpose_._0/ExpandDims"], "attr": {"use_cudnn_on_gpu": {"b": true}, "data_format": {"s": "TkhXQw=="}, "T": {"type": "DT_FLOAT"}, "padding": {"s": "U0FNRQ=="}, "strides": {"list": {"i": ["1", "8", "1", "1"]}}, "dilations": {"list": {"i": ["1", "1", "1", "1"]}}, "explicit_paddings": {"list": {}}}}, {"name": "StatefulPartitionedCall/sequential_4/conv_transpose_._0/conv2d_transpose/BiasAdd", "op": "BiasAdd", "input": ["StatefulPartitionedCall/sequential_4/conv_transpose_._0/conv2d_transpose/conv2d_transpose", "unknown_2"], "attr": {"data_format": {"s": "TkhXQw=="}, "T": {"type": "DT_FLOAT"}}}, {"name": "StatefulPartitionedCall/sequential_4/conv_transpose_._0/Squeeze", "op": "Squeeze", "input": ["StatefulPartitionedCall/sequential_4/conv_transpose_._0/conv2d_transpose/BiasAdd"], "attr": {"squeeze_dims": {"list": {"i": ["2"]}}, "T": {"type": "DT_FLOAT"}}}, {"name": "StatefulPartitionedCall/sequential_4/residual_stack_._0._._0/shortcut/conv1d/ExpandDims", "op": "ExpandDims", "input": ["StatefulPartitionedCall/sequential_4/conv_transpose_._0/Squeeze", "StatefulPartitionedCall/sequential_4/residual_stack_._0._._0/shortcut/conv1d/ExpandDims/dim"], "attr": {"T": {"type": "DT_FLOAT"}, "Tdim": {"type": "DT_INT32"}}}, {"name": "StatefulPartitionedCall/sequential_4/residual_stack_._0._._0/leaky_re_lu_1/LeakyRelu", "op": "LeakyRelu", "input": ["StatefulPartitionedCall/sequential_4/conv_transpose_._0/Squeeze"], "attr": {"alpha": {"f": 0.2}, "T": {"type": "DT_FLOAT"}}}, {"name": "StatefulPartitionedCall/sequential_4/residual_stack_._0._._0/shortcut/conv1d", "op": "_FusedConv2D", "input": ["StatefulPartitionedCall/sequential_4/residual_stack_._0._._0/shortcut/conv1d/ExpandDims", "StatefulPartitionedCall/sequential_4/residual_stack_._0._._0/shortcut/conv1d/ExpandDims_1", "unknown_8"], "device": "/device:CPU:0", "attr": {"data_format": {"s": "TkhXQw=="}, "T": {"type": "DT_FLOAT"}, "strides": {"list": {"i": ["1", "1", "1", "1"]}}, "explicit_paddings": {"list": {}}, "use_cudnn_on_gpu": {"b": true}, "padding": {"s": "VkFMSUQ="}, "fused_ops": {"list": {"s": ["Qmlhc0FkZA=="]}}, "epsilon": {"f": 0.0}, "dilations": {"list": {"i": ["1", "1", "1", "1"]}}, "num_args": {"i": "1"}}}, {"name": "StatefulPartitionedCall/sequential_4/residual_stack_._0._._0/tf_reflection_pad1d/MirrorPad", "op": "MirrorPad", "input": ["StatefulPartitionedCall/sequential_4/residual_stack_._0._._0/leaky_re_lu_1/LeakyRelu", "StatefulPartitionedCall/sequential_4/residual_stack_._0._._0/tf_reflection_pad1d/MirrorPad/paddings"], "attr": {"mode": {"s": "UkVGTEVDVA=="}, "T": {"type": "DT_FLOAT"}, "Tpaddings": {"type": "DT_INT32"}}}, {"name": "StatefulPartitionedCall/sequential_4/residual_stack_._0._._0/shortcut/BiasAdd", "op": "Squeeze", "input": ["StatefulPartitionedCall/sequential_4/residual_stack_._0._._0/shortcut/conv1d"], "attr": {"squeeze_dims": {"list": {"i": ["-3"]}}, "T": {"type": "DT_FLOAT"}}}, {"name": "StatefulPartitionedCall/sequential_4/residual_stack_._0._._0/conv1d_1/conv1d/ExpandDims", "op": "ExpandDims", "input": ["StatefulPartitionedCall/sequential_4/residual_stack_._0._._0/tf_reflection_pad1d/MirrorPad", "StatefulPartitionedCall/sequential_4/residual_stack_._0._._0/conv1d_1/conv1d/ExpandDims/dim"], "attr": {"T": {"type": "DT_FLOAT"}, "Tdim": {"type": "DT_INT32"}}}, {"name": "StatefulPartitionedCall/sequential_4/residual_stack_._0._._0/conv1d_1/conv1d", "op": "_FusedConv2D", "input": ["StatefulPartitionedCall/sequential_4/residual_stack_._0._._0/conv1d_1/conv1d/ExpandDims", "StatefulPartitionedCall/sequential_4/residual_stack_._0._._0/conv1d_1/conv1d/ExpandDims_1", "unknown_4"], "device": "/device:CPU:0", "attr": {"explicit_paddings": {"list": {}}, "epsilon": {"f": 0.0}, "fused_ops": {"list": {"s": ["Qmlhc0FkZA=="]}}, "padding": {"s": "VkFMSUQ="}, "use_cudnn_on_gpu": {"b": true}, "dilations": {"list": {"i": ["1", "1", "1", "1"]}}, "num_args": {"i": "1"}, "data_format": {"s": "TkhXQw=="}, "strides": {"list": {"i": ["1", "1", "1", "1"]}}, "T": {"type": "DT_FLOAT"}}}, {"name": "StatefulPartitionedCall/sequential_4/residual_stack_._0._._0/conv1d_1/BiasAdd", "op": "Squeeze", "input": ["StatefulPartitionedCall/sequential_4/residual_stack_._0._._0/conv1d_1/conv1d"], "attr": {"squeeze_dims": {"list": {"i": ["-3"]}}, "T": {"type": "DT_FLOAT"}}}, {"name": "StatefulPartitionedCall/sequential_4/residual_stack_._0._._0/leaky_re_lu_2/LeakyRelu", "op": "LeakyRelu", "input": ["StatefulPartitionedCall/sequential_4/residual_stack_._0._._0/conv1d_1/BiasAdd"], "attr": {"alpha": {"f": 0.2}, "T": {"type": "DT_FLOAT"}}}, {"name": "StatefulPartitionedCall/sequential_4/residual_stack_._0._._0/conv1d_2/conv1d/ExpandDims", "op": "ExpandDims", "input": ["StatefulPartitionedCall/sequential_4/residual_stack_._0._._0/leaky_re_lu_2/LeakyRelu", "StatefulPartitionedCall/sequential_4/residual_stack_._0._._0/conv1d_2/conv1d/ExpandDims/dim"], "attr": {"T": {"type": "DT_FLOAT"}, "Tdim": {"type": "DT_INT32"}}}, {"name": "StatefulPartitionedCall/sequential_4/residual_stack_._0._._0/conv1d_2/conv1d", "op": "_FusedConv2D", "input": ["StatefulPartitionedCall/sequential_4/residual_stack_._0._._0/conv1d_2/conv1d/ExpandDims", "StatefulPartitionedCall/sequential_4/residual_stack_._0._._0/conv1d_2/conv1d/ExpandDims_1", "unknown_6"], "device": "/device:CPU:0", "attr": {"explicit_paddings": {"list": {}}, "epsilon": {"f": 0.0}, "fused_ops": {"list": {"s": ["Qmlhc0FkZA=="]}}, "padding": {"s": "VkFMSUQ="}, "use_cudnn_on_gpu": {"b": true}, "dilations": {"list": {"i": ["1", "1", "1", "1"]}}, "num_args": {"i": "1"}, "data_format": {"s": "TkhXQw=="}, "strides": {"list": {"i": ["1", "1", "1", "1"]}}, "T": {"type": "DT_FLOAT"}}}, {"name": "StatefulPartitionedCall/sequential_4/residual_stack_._0._._0/conv1d_2/BiasAdd", "op": "Squeeze", "input": ["StatefulPartitionedCall/sequential_4/residual_stack_._0._._0/conv1d_2/conv1d"], "attr": {"squeeze_dims": {"list": {"i": ["-3"]}}, "T": {"type": "DT_FLOAT"}}}, {"name": "StatefulPartitionedCall/sequential_4/residual_stack_._0._._0/add", "op": "AddV2", "input": ["StatefulPartitionedCall/sequential_4/residual_stack_._0._._0/shortcut/BiasAdd", "StatefulPartitionedCall/sequential_4/residual_stack_._0._._0/conv1d_2/BiasAdd"], "attr": {"T": {"type": "DT_FLOAT"}}}, {"name": "StatefulPartitionedCall/sequential_4/residual_stack_._0._._1/shortcut/conv1d/ExpandDims", "op": "ExpandDims", "input": ["StatefulPartitionedCall/sequential_4/residual_stack_._0._._0/add", "StatefulPartitionedCall/sequential_4/residual_stack_._0._._1/shortcut/conv1d/ExpandDims/dim"], "attr": {"T": {"type": "DT_FLOAT"}, "Tdim": {"type": "DT_INT32"}}}, {"name": "StatefulPartitionedCall/sequential_4/residual_stack_._0._._1/leaky_re_lu_3/LeakyRelu", "op": "LeakyRelu", "input": ["StatefulPartitionedCall/sequential_4/residual_stack_._0._._0/add"], "attr": {"alpha": {"f": 0.2}, "T": {"type": "DT_FLOAT"}}}, {"name": "StatefulPartitionedCall/sequential_4/residual_stack_._0._._1/shortcut/conv1d", "op": "_FusedConv2D", "input": ["StatefulPartitionedCall/sequential_4/residual_stack_._0._._1/shortcut/conv1d/ExpandDims", "StatefulPartitionedCall/sequential_4/residual_stack_._0._._1/shortcut/conv1d/ExpandDims_1", "unknown_14"], "device": "/device:CPU:0", "attr": {"num_args": {"i": "1"}, "T": {"type": "DT_FLOAT"}, "padding": {"s": "VkFMSUQ="}, "data_format": {"s": "TkhXQw=="}, "fused_ops": {"list": {"s": ["Qmlhc0FkZA=="]}}, "strides": {"list": {"i": ["1", "1", "1", "1"]}}, "explicit_paddings": {"list": {}}, "use_cudnn_on_gpu": {"b": true}, "epsilon": {"f": 0.0}, "dilations": {"list": {"i": ["1", "1", "1", "1"]}}}}, {"name": "StatefulPartitionedCall/sequential_4/residual_stack_._0._._1/tf_reflection_pad1d_1/MirrorPad", "op": "MirrorPad", "input": ["StatefulPartitionedCall/sequential_4/residual_stack_._0._._1/leaky_re_lu_3/LeakyRelu", "StatefulPartitionedCall/sequential_4/residual_stack_._0._._1/tf_reflection_pad1d_1/MirrorPad/paddings"], "attr": {"Tpaddings": {"type": "DT_INT32"}, "T": {"type": "DT_FLOAT"}, "mode": {"s": "UkVGTEVDVA=="}}}, {"name": "StatefulPartitionedCall/sequential_4/residual_stack_._0._._1/shortcut/BiasAdd", "op": "Squeeze", "input": ["StatefulPartitionedCall/sequential_4/residual_stack_._0._._1/shortcut/conv1d"], "attr": {"squeeze_dims": {"list": {"i": ["-3"]}}, "T": {"type": "DT_FLOAT"}}}, {"name": "StatefulPartitionedCall/sequential_4/residual_stack_._0._._1/conv1d_3/conv1d/Shape", "op": "Shape", "input": ["StatefulPartitionedCall/sequential_4/residual_stack_._0._._1/tf_reflection_pad1d_1/MirrorPad"], "attr": {"out_type": {"type": "DT_INT32"}, "T": {"type": "DT_FLOAT"}}}, {"name": "StatefulPartitionedCall/sequential_4/residual_stack_._0._._1/conv1d_3/conv1d/strided_slice", "op": "StridedSlice", "input": ["StatefulPartitionedCall/sequential_4/residual_stack_._0._._1/conv1d_3/conv1d/Shape", "StatefulPartitionedCall/sequential_4/residual_stack_._0._._1/conv1d_3/conv1d/strided_slice/stack", "StatefulPartitionedCall/sequential_4/residual_stack_._0._._1/conv1d_3/conv1d/strided_slice/stack_1", "StatefulPartitionedCall/sequential_4/residual_stack_._0._._1/conv1d_3/conv1d/strided_slice/stack_2"], "attr": {"T": {"type": "DT_INT32"}, "new_axis_mask": {"i": "0"}, "Index": {"type": "DT_INT32"}, "ellipsis_mask": {"i": "0"}, "begin_mask": {"i": "0"}, "shrink_axis_mask": {"i": "1"}, "end_mask": {"i": "0"}}}, {"name": "ConstantFolding/StatefulPartitionedCall/sequential_4/residual_stack_._0._._1/conv1d_3/conv1d/stack_const_axis", "op": "Const", "input": ["^StatefulPartitionedCall/sequential_4/residual_stack_._0._._1/conv1d_3/conv1d/strided_slice"], "attr": {"value": {"tensor": {"dtype": "DT_INT32", "tensorShape": {}}}, "dtype": {"type": "DT_INT32"}}}, {"name": "StatefulPartitionedCall/sequential_4/residual_stack_._0._._1/conv1d_3/conv1d/stack", "op": "ExpandDims", "input": ["StatefulPartitionedCall/sequential_4/residual_stack_._0._._1/conv1d_3/conv1d/strided_slice", "ConstantFolding/StatefulPartitionedCall/sequential_4/residual_stack_._0._._1/conv1d_3/conv1d/stack_const_axis"], "attr": {"T": {"type": "DT_INT32"}, "Tdim": {"type": "DT_INT32"}}}, {"name": "StatefulPartitionedCall/sequential_4/residual_stack_._0._._1/conv1d_3/conv1d/required_space_to_batch_paddings/mod", "op": "FloorMod", "input": ["StatefulPartitionedCall/sequential_4/residual_stack_._0._._1/conv1d_3/conv1d/stack", "StatefulPartitionedCall/sequential_4/residual_stack_._0._._1/conv1d_3/conv1d/dilation_rate"], "attr": {"T": {"type": "DT_INT32"}}}, {"name": "StatefulPartitionedCall/sequential_4/residual_stack_._0._._1/conv1d_3/conv1d/required_space_to_batch_paddings/sub", "op": "Sub", "input": ["StatefulPartitionedCall/sequential_4/residual_stack_._0._._1/conv1d_3/conv1d/dilation_rate", "StatefulPartitionedCall/sequential_4/residual_stack_._0._._1/conv1d_3/conv1d/required_space_to_batch_paddings/mod"], "attr": {"T": {"type": "DT_INT32"}}}, {"name": "StatefulPartitionedCall/sequential_4/residual_stack_._0._._1/conv1d_3/conv1d/required_space_to_batch_paddings/mod_1", "op": "FloorMod", "input": ["StatefulPartitionedCall/sequential_4/residual_stack_._0._._1/conv1d_3/conv1d/required_space_to_batch_paddings/sub", "StatefulPartitionedCall/sequential_4/residual_stack_._0._._1/conv1d_3/conv1d/dilation_rate"], "attr": {"T": {"type": "DT_INT32"}}}, {"name": "StatefulPartitionedCall/sequential_4/residual_stack_._0._._1/conv1d_3/conv1d/required_space_to_batch_paddings/strided_slice_3", "op": "StridedSlice", "input": ["StatefulPartitionedCall/sequential_4/residual_stack_._0._._1/conv1d_3/conv1d/required_space_to_batch_paddings/mod_1", "StatefulPartitionedCall/sequential_4/residual_stack_._0._._1/conv1d_3/conv1d/required_space_to_batch_paddings/strided_slice_3/stack", "StatefulPartitionedCall/sequential_4/residual_stack_._0._._1/conv1d_3/conv1d/required_space_to_batch_paddings/strided_slice_3/stack_1", "StatefulPartitionedCall/sequential_4/residual_stack_._0._._1/conv1d_3/conv1d/required_space_to_batch_paddings/strided_slice_3/stack_2"], "attr": {"new_axis_mask": {"i": "0"}, "T": {"type": "DT_INT32"}, "begin_mask": {"i": "0"}, "Index": {"type": "DT_INT32"}, "ellipsis_mask": {"i": "0"}, "end_mask": {"i": "0"}, "shrink_axis_mask": {"i": "1"}}}, {"name": "StatefulPartitionedCall/sequential_4/residual_stack_._0._._1/conv1d_3/conv1d/required_space_to_batch_paddings/strided_slice_4", "op": "StridedSlice", "input": ["StatefulPartitionedCall/sequential_4/residual_stack_._0._._1/conv1d_3/conv1d/required_space_to_batch_paddings/mod_1", "StatefulPartitionedCall/sequential_4/residual_stack_._0._._1/conv1d_3/conv1d/required_space_to_batch_paddings/strided_slice_4/stack", "StatefulPartitionedCall/sequential_4/residual_stack_._0._._1/conv1d_3/conv1d/required_space_to_batch_paddings/strided_slice_4/stack_1", "StatefulPartitionedCall/sequential_4/residual_stack_._0._._1/conv1d_3/conv1d/required_space_to_batch_paddings/strided_slice_4/stack_2"], "attr": {"Index": {"type": "DT_INT32"}, "ellipsis_mask": {"i": "0"}, "new_axis_mask": {"i": "0"}, "begin_mask": {"i": "0"}, "shrink_axis_mask": {"i": "1"}, "end_mask": {"i": "0"}, "T": {"type": "DT_INT32"}}}, {"name": "StatefulPartitionedCall/sequential_4/residual_stack_._0._._1/conv1d_3/conv1d/required_space_to_batch_paddings/paddings/0", "op": "Pack", "input": ["StatefulPartitionedCall/sequential_4/residual_stack_._0._._1/conv1d_3/conv1d/required_space_to_batch_paddings/strided_slice_2", "StatefulPartitionedCall/sequential_4/residual_stack_._0._._1/conv1d_3/conv1d/required_space_to_batch_paddings/strided_slice_3"], "attr": {"axis": {"i": "0"}, "T": {"type": "DT_INT32"}, "N": {"i": "2"}}}, {"name": "StatefulPartitionedCall/sequential_4/residual_stack_._0._._1/conv1d_3/conv1d/required_space_to_batch_paddings/crops/0", "op": "Pack", "input": ["StatefulPartitionedCall/sequential_4/residual_stack_._0._._1/conv1d_3/conv1d/required_space_to_batch_paddings/crops/0/0", "StatefulPartitionedCall/sequential_4/residual_stack_._0._._1/conv1d_3/conv1d/required_space_to_batch_paddings/strided_slice_4"], "attr": {"axis": {"i": "0"}, "T": {"type": "DT_INT32"}, "N": {"i": "2"}}}, {"name": "ConstantFolding/StatefulPartitionedCall/sequential_4/residual_stack_._0._._1/conv1d_3/conv1d/required_space_to_batch_paddings/paddings_const_axis", "op": "Const", "input": ["^StatefulPartitionedCall/sequential_4/residual_stack_._0._._1/conv1d_3/conv1d/required_space_to_batch_paddings/paddings/0"], "attr": {"value": {"tensor": {"dtype": "DT_INT32", "tensorShape": {}}}, "dtype": {"type": "DT_INT32"}}}, {"name": "ConstantFolding/StatefulPartitionedCall/sequential_4/residual_stack_._0._._1/conv1d_3/conv1d/required_space_to_batch_paddings/crops_const_axis", "op": "Const", "input": ["^StatefulPartitionedCall/sequential_4/residual_stack_._0._._1/conv1d_3/conv1d/required_space_to_batch_paddings/crops/0"], "attr": {"value": {"tensor": {"dtype": "DT_INT32", "tensorShape": {}}}, "dtype": {"type": "DT_INT32"}}}, {"name": "StatefulPartitionedCall/sequential_4/residual_stack_._0._._1/conv1d_3/conv1d/required_space_to_batch_paddings/paddings", "op": "ExpandDims", "input": ["StatefulPartitionedCall/sequential_4/residual_stack_._0._._1/conv1d_3/conv1d/required_space_to_batch_paddings/paddings/0", "ConstantFolding/StatefulPartitionedCall/sequential_4/residual_stack_._0._._1/conv1d_3/conv1d/required_space_to_batch_paddings/paddings_const_axis"], "attr": {"T": {"type": "DT_INT32"}, "Tdim": {"type": "DT_INT32"}}}, {"name": "StatefulPartitionedCall/sequential_4/residual_stack_._0._._1/conv1d_3/conv1d/required_space_to_batch_paddings/crops", "op": "ExpandDims", "input": ["StatefulPartitionedCall/sequential_4/residual_stack_._0._._1/conv1d_3/conv1d/required_space_to_batch_paddings/crops/0", "ConstantFolding/StatefulPartitionedCall/sequential_4/residual_stack_._0._._1/conv1d_3/conv1d/required_space_to_batch_paddings/crops_const_axis"], "attr": {"T": {"type": "DT_INT32"}, "Tdim": {"type": "DT_INT32"}}}, {"name": "StatefulPartitionedCall/sequential_4/residual_stack_._0._._1/conv1d_3/conv1d/SpaceToBatchND", "op": "SpaceToBatchND", "input": ["StatefulPartitionedCall/sequential_4/residual_stack_._0._._1/tf_reflection_pad1d_1/MirrorPad", "StatefulPartitionedCall/sequential_4/residual_stack_._0._._1/conv1d_3/conv1d/SpaceToBatchND/block_shape", "StatefulPartitionedCall/sequential_4/residual_stack_._0._._1/conv1d_3/conv1d/required_space_to_batch_paddings/paddings"], "attr": {"Tpaddings": {"type": "DT_INT32"}, "Tblock_shape": {"type": "DT_INT32"}, "T": {"type": "DT_FLOAT"}}}, {"name": "StatefulPartitionedCall/sequential_4/residual_stack_._0._._1/conv1d_3/conv1d/ExpandDims", "op": "ExpandDims", "input": ["StatefulPartitionedCall/sequential_4/residual_stack_._0._._1/conv1d_3/conv1d/SpaceToBatchND", "StatefulPartitionedCall/sequential_4/residual_stack_._0._._1/conv1d_3/conv1d/ExpandDims/dim"], "attr": {"T": {"type": "DT_FLOAT"}, "Tdim": {"type": "DT_INT32"}}}, {"name": "StatefulPartitionedCall/sequential_4/residual_stack_._0._._1/conv1d_3/conv1d", "op": "Conv2D", "input": ["StatefulPartitionedCall/sequential_4/residual_stack_._0._._1/conv1d_3/conv1d/ExpandDims", "StatefulPartitionedCall/sequential_4/residual_stack_._0._._1/conv1d_3/conv1d/ExpandDims_1"], "device": "/device:CPU:0", "attr": {"data_format": {"s": "TkhXQw=="}, "T": {"type": "DT_FLOAT"}, "strides": {"list": {"i": ["1", "1", "1", "1"]}}, "explicit_paddings": {"list": {}}, "use_cudnn_on_gpu": {"b": true}, "padding": {"s": "VkFMSUQ="}, "dilations": {"list": {"i": ["1", "1", "1", "1"]}}}}, {"name": "StatefulPartitionedCall/sequential_4/residual_stack_._0._._1/conv1d_3/conv1d/Squeeze", "op": "Squeeze", "input": ["StatefulPartitionedCall/sequential_4/residual_stack_._0._._1/conv1d_3/conv1d"], "attr": {"squeeze_dims": {"list": {"i": ["-3"]}}, "T": {"type": "DT_FLOAT"}}}, {"name": "StatefulPartitionedCall/sequential_4/residual_stack_._0._._1/conv1d_3/conv1d/BatchToSpaceND", "op": "BatchToSpaceND", "input": ["StatefulPartitionedCall/sequential_4/residual_stack_._0._._1/conv1d_3/conv1d/Squeeze", "StatefulPartitionedCall/sequential_4/residual_stack_._0._._1/conv1d_3/conv1d/BatchToSpaceND/block_shape", "StatefulPartitionedCall/sequential_4/residual_stack_._0._._1/conv1d_3/conv1d/required_space_to_batch_paddings/crops"], "attr": {"Tblock_shape": {"type": "DT_INT32"}, "T": {"type": "DT_FLOAT"}, "Tcrops": {"type": "DT_INT32"}}}, {"name": "StatefulPartitionedCall/sequential_4/residual_stack_._0._._1/conv1d_3/BiasAdd", "op": "BiasAdd", "input": ["StatefulPartitionedCall/sequential_4/residual_stack_._0._._1/conv1d_3/conv1d/BatchToSpaceND", "unknown_10"], "attr": {"data_format": {"s": "TkhXQw=="}, "T": {"type": "DT_FLOAT"}}}, {"name": "StatefulPartitionedCall/sequential_4/residual_stack_._0._._1/leaky_re_lu_4/LeakyRelu", "op": "LeakyRelu", "input": ["StatefulPartitionedCall/sequential_4/residual_stack_._0._._1/conv1d_3/BiasAdd"], "attr": {"alpha": {"f": 0.2}, "T": {"type": "DT_FLOAT"}}}, {"name": "StatefulPartitionedCall/sequential_4/residual_stack_._0._._1/conv1d_4/conv1d/ExpandDims", "op": "ExpandDims", "input": ["StatefulPartitionedCall/sequential_4/residual_stack_._0._._1/leaky_re_lu_4/LeakyRelu", "StatefulPartitionedCall/sequential_4/residual_stack_._0._._1/conv1d_4/conv1d/ExpandDims/dim"], "attr": {"T": {"type": "DT_FLOAT"}, "Tdim": {"type": "DT_INT32"}}}, {"name": "StatefulPartitionedCall/sequential_4/residual_stack_._0._._1/conv1d_4/conv1d", "op": "_FusedConv2D", "input": ["StatefulPartitionedCall/sequential_4/residual_stack_._0._._1/conv1d_4/conv1d/ExpandDims", "StatefulPartitionedCall/sequential_4/residual_stack_._0._._1/conv1d_4/conv1d/ExpandDims_1", "unknown_12"], "device": "/device:CPU:0", "attr": {"fused_ops": {"list": {"s": ["Qmlhc0FkZA=="]}}, "strides": {"list": {"i": ["1", "1", "1", "1"]}}, "padding": {"s": "VkFMSUQ="}, "explicit_paddings": {"list": {}}, "epsilon": {"f": 0.0}, "use_cudnn_on_gpu": {"b": true}, "dilations": {"list": {"i": ["1", "1", "1", "1"]}}, "num_args": {"i": "1"}, "T": {"type": "DT_FLOAT"}, "data_format": {"s": "TkhXQw=="}}}, {"name": "StatefulPartitionedCall/sequential_4/residual_stack_._0._._1/conv1d_4/BiasAdd", "op": "Squeeze", "input": ["StatefulPartitionedCall/sequential_4/residual_stack_._0._._1/conv1d_4/conv1d"], "attr": {"squeeze_dims": {"list": {"i": ["-3"]}}, "T": {"type": "DT_FLOAT"}}}, {"name": "StatefulPartitionedCall/sequential_4/residual_stack_._0._._1/add", "op": "AddV2", "input": ["StatefulPartitionedCall/sequential_4/residual_stack_._0._._1/shortcut/BiasAdd", "StatefulPartitionedCall/sequential_4/residual_stack_._0._._1/conv1d_4/BiasAdd"], "attr": {"T": {"type": "DT_FLOAT"}}}, {"name": "StatefulPartitionedCall/sequential_4/residual_stack_._0._._2/shortcut/conv1d/ExpandDims", "op": "ExpandDims", "input": ["StatefulPartitionedCall/sequential_4/residual_stack_._0._._1/add", "StatefulPartitionedCall/sequential_4/residual_stack_._0._._2/shortcut/conv1d/ExpandDims/dim"], "attr": {"T": {"type": "DT_FLOAT"}, "Tdim": {"type": "DT_INT32"}}}, {"name": "StatefulPartitionedCall/sequential_4/residual_stack_._0._._2/leaky_re_lu_5/LeakyRelu", "op": "LeakyRelu", "input": ["StatefulPartitionedCall/sequential_4/residual_stack_._0._._1/add"], "attr": {"alpha": {"f": 0.2}, "T": {"type": "DT_FLOAT"}}}, {"name": "StatefulPartitionedCall/sequential_4/residual_stack_._0._._2/shortcut/conv1d", "op": "_FusedConv2D", "input": ["StatefulPartitionedCall/sequential_4/residual_stack_._0._._2/shortcut/conv1d/ExpandDims", "StatefulPartitionedCall/sequential_4/residual_stack_._0._._2/shortcut/conv1d/ExpandDims_1", "unknown_20"], "device": "/device:CPU:0", "attr": {"epsilon": {"f": 0.0}, "fused_ops": {"list": {"s": ["Qmlhc0FkZA=="]}}, "dilations": {"list": {"i": ["1", "1", "1", "1"]}}, "explicit_paddings": {"list": {}}, "use_cudnn_on_gpu": {"b": true}, "strides": {"list": {"i": ["1", "1", "1", "1"]}}, "num_args": {"i": "1"}, "T": {"type": "DT_FLOAT"}, "data_format": {"s": "TkhXQw=="}, "padding": {"s": "VkFMSUQ="}}}, {"name": "StatefulPartitionedCall/sequential_4/residual_stack_._0._._2/tf_reflection_pad1d_2/MirrorPad", "op": "MirrorPad", "input": ["StatefulPartitionedCall/sequential_4/residual_stack_._0._._2/leaky_re_lu_5/LeakyRelu", "StatefulPartitionedCall/sequential_4/residual_stack_._0._._2/tf_reflection_pad1d_2/MirrorPad/paddings"], "attr": {"T": {"type": "DT_FLOAT"}, "Tpaddings": {"type": "DT_INT32"}, "mode": {"s": "UkVGTEVDVA=="}}}, {"name": "StatefulPartitionedCall/sequential_4/residual_stack_._0._._2/shortcut/BiasAdd", "op": "Squeeze", "input": ["StatefulPartitionedCall/sequential_4/residual_stack_._0._._2/shortcut/conv1d"], "attr": {"T": {"type": "DT_FLOAT"}, "squeeze_dims": {"list": {"i": ["-3"]}}}}, {"name": "StatefulPartitionedCall/sequential_4/residual_stack_._0._._2/conv1d_5/conv1d/Shape", "op": "Shape", "input": ["StatefulPartitionedCall/sequential_4/residual_stack_._0._._2/tf_reflection_pad1d_2/MirrorPad"], "attr": {"out_type": {"type": "DT_INT32"}, "T": {"type": "DT_FLOAT"}}}, {"name": "StatefulPartitionedCall/sequential_4/residual_stack_._0._._2/conv1d_5/conv1d/strided_slice", "op": "StridedSlice", "input": ["StatefulPartitionedCall/sequential_4/residual_stack_._0._._2/conv1d_5/conv1d/Shape", "StatefulPartitionedCall/sequential_4/residual_stack_._0._._2/conv1d_5/conv1d/strided_slice/stack", "StatefulPartitionedCall/sequential_4/residual_stack_._0._._2/conv1d_5/conv1d/strided_slice/stack_1", "StatefulPartitionedCall/sequential_4/residual_stack_._0._._2/conv1d_5/conv1d/strided_slice/stack_2"], "attr": {"end_mask": {"i": "0"}, "new_axis_mask": {"i": "0"}, "T": {"type": "DT_INT32"}, "begin_mask": {"i": "0"}, "ellipsis_mask": {"i": "0"}, "shrink_axis_mask": {"i": "1"}, "Index": {"type": "DT_INT32"}}}, {"name": "ConstantFolding/StatefulPartitionedCall/sequential_4/residual_stack_._0._._2/conv1d_5/conv1d/stack_const_axis", "op": "Const", "input": ["^StatefulPartitionedCall/sequential_4/residual_stack_._0._._2/conv1d_5/conv1d/strided_slice"], "attr": {"dtype": {"type": "DT_INT32"}, "value": {"tensor": {"dtype": "DT_INT32", "tensorShape": {}}}}}, {"name": "StatefulPartitionedCall/sequential_4/residual_stack_._0._._2/conv1d_5/conv1d/stack", "op": "ExpandDims", "input": ["StatefulPartitionedCall/sequential_4/residual_stack_._0._._2/conv1d_5/conv1d/strided_slice", "ConstantFolding/StatefulPartitionedCall/sequential_4/residual_stack_._0._._2/conv1d_5/conv1d/stack_const_axis"], "attr": {"Tdim": {"type": "DT_INT32"}, "T": {"type": "DT_INT32"}}}, {"name": "StatefulPartitionedCall/sequential_4/residual_stack_._0._._2/conv1d_5/conv1d/required_space_to_batch_paddings/mod", "op": "FloorMod", "input": ["StatefulPartitionedCall/sequential_4/residual_stack_._0._._2/conv1d_5/conv1d/stack", "StatefulPartitionedCall/sequential_4/residual_stack_._0._._2/conv1d_5/conv1d/dilation_rate"], "attr": {"T": {"type": "DT_INT32"}}}, {"name": "StatefulPartitionedCall/sequential_4/residual_stack_._0._._2/conv1d_5/conv1d/required_space_to_batch_paddings/sub", "op": "Sub", "input": ["StatefulPartitionedCall/sequential_4/residual_stack_._0._._2/conv1d_5/conv1d/dilation_rate", "StatefulPartitionedCall/sequential_4/residual_stack_._0._._2/conv1d_5/conv1d/required_space_to_batch_paddings/mod"], "attr": {"T": {"type": "DT_INT32"}}}, {"name": "StatefulPartitionedCall/sequential_4/residual_stack_._0._._2/conv1d_5/conv1d/required_space_to_batch_paddings/mod_1", "op": "FloorMod", "input": ["StatefulPartitionedCall/sequential_4/residual_stack_._0._._2/conv1d_5/conv1d/required_space_to_batch_paddings/sub", "StatefulPartitionedCall/sequential_4/residual_stack_._0._._2/conv1d_5/conv1d/dilation_rate"], "attr": {"T": {"type": "DT_INT32"}}}, {"name": "StatefulPartitionedCall/sequential_4/residual_stack_._0._._2/conv1d_5/conv1d/required_space_to_batch_paddings/strided_slice_3", "op": "StridedSlice", "input": ["StatefulPartitionedCall/sequential_4/residual_stack_._0._._2/conv1d_5/conv1d/required_space_to_batch_paddings/mod_1", "StatefulPartitionedCall/sequential_4/residual_stack_._0._._2/conv1d_5/conv1d/required_space_to_batch_paddings/strided_slice_3/stack", "StatefulPartitionedCall/sequential_4/residual_stack_._0._._2/conv1d_5/conv1d/required_space_to_batch_paddings/strided_slice_3/stack_1", "StatefulPartitionedCall/sequential_4/residual_stack_._0._._2/conv1d_5/conv1d/required_space_to_batch_paddings/strided_slice_3/stack_2"], "attr": {"ellipsis_mask": {"i": "0"}, "begin_mask": {"i": "0"}, "shrink_axis_mask": {"i": "1"}, "new_axis_mask": {"i": "0"}, "Index": {"type": "DT_INT32"}, "end_mask": {"i": "0"}, "T": {"type": "DT_INT32"}}}, {"name": "StatefulPartitionedCall/sequential_4/residual_stack_._0._._2/conv1d_5/conv1d/required_space_to_batch_paddings/strided_slice_4", "op": "StridedSlice", "input": ["StatefulPartitionedCall/sequential_4/residual_stack_._0._._2/conv1d_5/conv1d/required_space_to_batch_paddings/mod_1", "StatefulPartitionedCall/sequential_4/residual_stack_._0._._2/conv1d_5/conv1d/required_space_to_batch_paddings/strided_slice_4/stack", "StatefulPartitionedCall/sequential_4/residual_stack_._0._._2/conv1d_5/conv1d/required_space_to_batch_paddings/strided_slice_4/stack_1", "StatefulPartitionedCall/sequential_4/residual_stack_._0._._2/conv1d_5/conv1d/required_space_to_batch_paddings/strided_slice_4/stack_2"], "attr": {"end_mask": {"i": "0"}, "T": {"type": "DT_INT32"}, "ellipsis_mask": {"i": "0"}, "begin_mask": {"i": "0"}, "shrink_axis_mask": {"i": "1"}, "Index": {"type": "DT_INT32"}, "new_axis_mask": {"i": "0"}}}, {"name": "StatefulPartitionedCall/sequential_4/residual_stack_._0._._2/conv1d_5/conv1d/required_space_to_batch_paddings/paddings/0", "op": "Pack", "input": ["StatefulPartitionedCall/sequential_4/residual_stack_._0._._2/conv1d_5/conv1d/required_space_to_batch_paddings/strided_slice_2", "StatefulPartitionedCall/sequential_4/residual_stack_._0._._2/conv1d_5/conv1d/required_space_to_batch_paddings/strided_slice_3"], "attr": {"T": {"type": "DT_INT32"}, "N": {"i": "2"}, "axis": {"i": "0"}}}, {"name": "StatefulPartitionedCall/sequential_4/residual_stack_._0._._2/conv1d_5/conv1d/required_space_to_batch_paddings/crops/0", "op": "Pack", "input": ["StatefulPartitionedCall/sequential_4/residual_stack_._0._._2/conv1d_5/conv1d/required_space_to_batch_paddings/crops/0/0", "StatefulPartitionedCall/sequential_4/residual_stack_._0._._2/conv1d_5/conv1d/required_space_to_batch_paddings/strided_slice_4"], "attr": {"N": {"i": "2"}, "axis": {"i": "0"}, "T": {"type": "DT_INT32"}}}, {"name": "ConstantFolding/StatefulPartitionedCall/sequential_4/residual_stack_._0._._2/conv1d_5/conv1d/required_space_to_batch_paddings/paddings_const_axis", "op": "Const", "input": ["^StatefulPartitionedCall/sequential_4/residual_stack_._0._._2/conv1d_5/conv1d/required_space_to_batch_paddings/paddings/0"], "attr": {"value": {"tensor": {"dtype": "DT_INT32", "tensorShape": {}}}, "dtype": {"type": "DT_INT32"}}}, {"name": "ConstantFolding/StatefulPartitionedCall/sequential_4/residual_stack_._0._._2/conv1d_5/conv1d/required_space_to_batch_paddings/crops_const_axis", "op": "Const", "input": ["^StatefulPartitionedCall/sequential_4/residual_stack_._0._._2/conv1d_5/conv1d/required_space_to_batch_paddings/crops/0"], "attr": {"value": {"tensor": {"dtype": "DT_INT32", "tensorShape": {}}}, "dtype": {"type": "DT_INT32"}}}, {"name": "StatefulPartitionedCall/sequential_4/residual_stack_._0._._2/conv1d_5/conv1d/required_space_to_batch_paddings/paddings", "op": "ExpandDims", "input": ["StatefulPartitionedCall/sequential_4/residual_stack_._0._._2/conv1d_5/conv1d/required_space_to_batch_paddings/paddings/0", "ConstantFolding/StatefulPartitionedCall/sequential_4/residual_stack_._0._._2/conv1d_5/conv1d/required_space_to_batch_paddings/paddings_const_axis"], "attr": {"Tdim": {"type": "DT_INT32"}, "T": {"type": "DT_INT32"}}}, {"name": "StatefulPartitionedCall/sequential_4/residual_stack_._0._._2/conv1d_5/conv1d/required_space_to_batch_paddings/crops", "op": "ExpandDims", "input": ["StatefulPartitionedCall/sequential_4/residual_stack_._0._._2/conv1d_5/conv1d/required_space_to_batch_paddings/crops/0", "ConstantFolding/StatefulPartitionedCall/sequential_4/residual_stack_._0._._2/conv1d_5/conv1d/required_space_to_batch_paddings/crops_const_axis"], "attr": {"Tdim": {"type": "DT_INT32"}, "T": {"type": "DT_INT32"}}}, {"name": "StatefulPartitionedCall/sequential_4/residual_stack_._0._._2/conv1d_5/conv1d/SpaceToBatchND", "op": "SpaceToBatchND", "input": ["StatefulPartitionedCall/sequential_4/residual_stack_._0._._2/tf_reflection_pad1d_2/MirrorPad", "StatefulPartitionedCall/sequential_4/residual_stack_._0._._2/conv1d_5/conv1d/SpaceToBatchND/block_shape", "StatefulPartitionedCall/sequential_4/residual_stack_._0._._2/conv1d_5/conv1d/required_space_to_batch_paddings/paddings"], "attr": {"Tblock_shape": {"type": "DT_INT32"}, "T": {"type": "DT_FLOAT"}, "Tpaddings": {"type": "DT_INT32"}}}, {"name": "StatefulPartitionedCall/sequential_4/residual_stack_._0._._2/conv1d_5/conv1d/ExpandDims", "op": "ExpandDims", "input": ["StatefulPartitionedCall/sequential_4/residual_stack_._0._._2/conv1d_5/conv1d/SpaceToBatchND", "StatefulPartitionedCall/sequential_4/residual_stack_._0._._2/conv1d_5/conv1d/ExpandDims/dim"], "attr": {"Tdim": {"type": "DT_INT32"}, "T": {"type": "DT_FLOAT"}}}, {"name": "StatefulPartitionedCall/sequential_4/residual_stack_._0._._2/conv1d_5/conv1d", "op": "Conv2D", "input": ["StatefulPartitionedCall/sequential_4/residual_stack_._0._._2/conv1d_5/conv1d/ExpandDims", "StatefulPartitionedCall/sequential_4/residual_stack_._0._._2/conv1d_5/conv1d/ExpandDims_1"], "device": "/device:CPU:0", "attr": {"data_format": {"s": "TkhXQw=="}, "T": {"type": "DT_FLOAT"}, "dilations": {"list": {"i": ["1", "1", "1", "1"]}}, "explicit_paddings": {"list": {}}, "padding": {"s": "VkFMSUQ="}, "use_cudnn_on_gpu": {"b": true}, "strides": {"list": {"i": ["1", "1", "1", "1"]}}}}, {"name": "StatefulPartitionedCall/sequential_4/residual_stack_._0._._2/conv1d_5/conv1d/Squeeze", "op": "Squeeze", "input": ["StatefulPartitionedCall/sequential_4/residual_stack_._0._._2/conv1d_5/conv1d"], "attr": {"T": {"type": "DT_FLOAT"}, "squeeze_dims": {"list": {"i": ["-3"]}}}}, {"name": "StatefulPartitionedCall/sequential_4/residual_stack_._0._._2/conv1d_5/conv1d/BatchToSpaceND", "op": "BatchToSpaceND", "input": ["StatefulPartitionedCall/sequential_4/residual_stack_._0._._2/conv1d_5/conv1d/Squeeze", "StatefulPartitionedCall/sequential_4/residual_stack_._0._._2/conv1d_5/conv1d/BatchToSpaceND/block_shape", "StatefulPartitionedCall/sequential_4/residual_stack_._0._._2/conv1d_5/conv1d/required_space_to_batch_paddings/crops"], "attr": {"T": {"type": "DT_FLOAT"}, "Tcrops": {"type": "DT_INT32"}, "Tblock_shape": {"type": "DT_INT32"}}}, {"name": "StatefulPartitionedCall/sequential_4/residual_stack_._0._._2/conv1d_5/BiasAdd", "op": "BiasAdd", "input": ["StatefulPartitionedCall/sequential_4/residual_stack_._0._._2/conv1d_5/conv1d/BatchToSpaceND", "unknown_16"], "attr": {"data_format": {"s": "TkhXQw=="}, "T": {"type": "DT_FLOAT"}}}, {"name": "StatefulPartitionedCall/sequential_4/residual_stack_._0._._2/leaky_re_lu_6/LeakyRelu", "op": "LeakyRelu", "input": ["StatefulPartitionedCall/sequential_4/residual_stack_._0._._2/conv1d_5/BiasAdd"], "attr": {"alpha": {"f": 0.2}, "T": {"type": "DT_FLOAT"}}}, {"name": "StatefulPartitionedCall/sequential_4/residual_stack_._0._._2/conv1d_6/conv1d/ExpandDims", "op": "ExpandDims", "input": ["StatefulPartitionedCall/sequential_4/residual_stack_._0._._2/leaky_re_lu_6/LeakyRelu", "StatefulPartitionedCall/sequential_4/residual_stack_._0._._2/conv1d_6/conv1d/ExpandDims/dim"], "attr": {"Tdim": {"type": "DT_INT32"}, "T": {"type": "DT_FLOAT"}}}, {"name": "StatefulPartitionedCall/sequential_4/residual_stack_._0._._2/conv1d_6/conv1d", "op": "_FusedConv2D", "input": ["StatefulPartitionedCall/sequential_4/residual_stack_._0._._2/conv1d_6/conv1d/ExpandDims", "StatefulPartitionedCall/sequential_4/residual_stack_._0._._2/conv1d_6/conv1d/ExpandDims_1", "unknown_18"], "device": "/device:CPU:0", "attr": {"data_format": {"s": "TkhXQw=="}, "fused_ops": {"list": {"s": ["Qmlhc0FkZA=="]}}, "epsilon": {"f": 0.0}, "T": {"type": "DT_FLOAT"}, "dilations": {"list": {"i": ["1", "1", "1", "1"]}}, "explicit_paddings": {"list": {}}, "padding": {"s": "VkFMSUQ="}, "use_cudnn_on_gpu": {"b": true}, "strides": {"list": {"i": ["1", "1", "1", "1"]}}, "num_args": {"i": "1"}}}, {"name": "StatefulPartitionedCall/sequential_4/residual_stack_._0._._2/conv1d_6/BiasAdd", "op": "Squeeze", "input": ["StatefulPartitionedCall/sequential_4/residual_stack_._0._._2/conv1d_6/conv1d"], "attr": {"T": {"type": "DT_FLOAT"}, "squeeze_dims": {"list": {"i": ["-3"]}}}}, {"name": "StatefulPartitionedCall/sequential_4/residual_stack_._0._._2/add", "op": "AddV2", "input": ["StatefulPartitionedCall/sequential_4/residual_stack_._0._._2/shortcut/BiasAdd", "StatefulPartitionedCall/sequential_4/residual_stack_._0._._2/conv1d_6/BiasAdd"], "attr": {"T": {"type": "DT_FLOAT"}}}, {"name": "StatefulPartitionedCall/sequential_4/residual_stack_._0._._3/shortcut/conv1d/ExpandDims", "op": "ExpandDims", "input": ["StatefulPartitionedCall/sequential_4/residual_stack_._0._._2/add", "StatefulPartitionedCall/sequential_4/residual_stack_._0._._3/shortcut/conv1d/ExpandDims/dim"], "attr": {"Tdim": {"type": "DT_INT32"}, "T": {"type": "DT_FLOAT"}}}, {"name": "StatefulPartitionedCall/sequential_4/residual_stack_._0._._3/leaky_re_lu_7/LeakyRelu", "op": "LeakyRelu", "input": ["StatefulPartitionedCall/sequential_4/residual_stack_._0._._2/add"], "attr": {"alpha": {"f": 0.2}, "T": {"type": "DT_FLOAT"}}}, {"name": "StatefulPartitionedCall/sequential_4/residual_stack_._0._._3/shortcut/conv1d", "op": "_FusedConv2D", "input": ["StatefulPartitionedCall/sequential_4/residual_stack_._0._._3/shortcut/conv1d/ExpandDims", "StatefulPartitionedCall/sequential_4/residual_stack_._0._._3/shortcut/conv1d/ExpandDims_1", "unknown_26"], "device": "/device:CPU:0", "attr": {"data_format": {"s": "TkhXQw=="}, "fused_ops": {"list": {"s": ["Qmlhc0FkZA=="]}}, "epsilon": {"f": 0.0}, "T": {"type": "DT_FLOAT"}, "dilations": {"list": {"i": ["1", "1", "1", "1"]}}, "explicit_paddings": {"list": {}}, "padding": {"s": "VkFMSUQ="}, "use_cudnn_on_gpu": {"b": true}, "strides": {"list": {"i": ["1", "1", "1", "1"]}}, "num_args": {"i": "1"}}}, {"name": "StatefulPartitionedCall/sequential_4/residual_stack_._0._._3/tf_reflection_pad1d_3/MirrorPad", "op": "MirrorPad", "input": ["StatefulPartitionedCall/sequential_4/residual_stack_._0._._3/leaky_re_lu_7/LeakyRelu", "StatefulPartitionedCall/sequential_4/residual_stack_._0._._3/tf_reflection_pad1d_3/MirrorPad/paddings"], "attr": {"Tpaddings": {"type": "DT_INT32"}, "mode": {"s": "UkVGTEVDVA=="}, "T": {"type": "DT_FLOAT"}}}, {"name": "StatefulPartitionedCall/sequential_4/residual_stack_._0._._3/shortcut/BiasAdd", "op": "Squeeze", "input": ["StatefulPartitionedCall/sequential_4/residual_stack_._0._._3/shortcut/conv1d"], "attr": {"T": {"type": "DT_FLOAT"}, "squeeze_dims": {"list": {"i": ["-3"]}}}}, {"name": "StatefulPartitionedCall/sequential_4/residual_stack_._0._._3/conv1d_7/conv1d/Shape", "op": "Shape", "input": ["StatefulPartitionedCall/sequential_4/residual_stack_._0._._3/tf_reflection_pad1d_3/MirrorPad"], "attr": {"out_type": {"type": "DT_INT32"}, "T": {"type": "DT_FLOAT"}}}, {"name": "StatefulPartitionedCall/sequential_4/residual_stack_._0._._3/conv1d_7/conv1d/strided_slice", "op": "StridedSlice", "input": ["StatefulPartitionedCall/sequential_4/residual_stack_._0._._3/conv1d_7/conv1d/Shape", "StatefulPartitionedCall/sequential_4/residual_stack_._0._._3/conv1d_7/conv1d/strided_slice/stack", "StatefulPartitionedCall/sequential_4/residual_stack_._0._._3/conv1d_7/conv1d/strided_slice/stack_1", "StatefulPartitionedCall/sequential_4/residual_stack_._0._._3/conv1d_7/conv1d/strided_slice/stack_2"], "attr": {"ellipsis_mask": {"i": "0"}, "Index": {"type": "DT_INT32"}, "new_axis_mask": {"i": "0"}, "end_mask": {"i": "0"}, "T": {"type": "DT_INT32"}, "begin_mask": {"i": "0"}, "shrink_axis_mask": {"i": "1"}}}, {"name": "ConstantFolding/StatefulPartitionedCall/sequential_4/residual_stack_._0._._3/conv1d_7/conv1d/stack_const_axis", "op": "Const", "input": ["^StatefulPartitionedCall/sequential_4/residual_stack_._0._._3/conv1d_7/conv1d/strided_slice"], "attr": {"dtype": {"type": "DT_INT32"}, "value": {"tensor": {"dtype": "DT_INT32", "tensorShape": {}}}}}, {"name": "StatefulPartitionedCall/sequential_4/residual_stack_._0._._3/conv1d_7/conv1d/stack", "op": "ExpandDims", "input": ["StatefulPartitionedCall/sequential_4/residual_stack_._0._._3/conv1d_7/conv1d/strided_slice", "ConstantFolding/StatefulPartitionedCall/sequential_4/residual_stack_._0._._3/conv1d_7/conv1d/stack_const_axis"], "attr": {"Tdim": {"type": "DT_INT32"}, "T": {"type": "DT_INT32"}}}, {"name": "StatefulPartitionedCall/sequential_4/residual_stack_._0._._3/conv1d_7/conv1d/required_space_to_batch_paddings/mod", "op": "FloorMod", "input": ["StatefulPartitionedCall/sequential_4/residual_stack_._0._._3/conv1d_7/conv1d/stack", "StatefulPartitionedCall/sequential_4/residual_stack_._0._._3/conv1d_7/conv1d/dilation_rate"], "attr": {"T": {"type": "DT_INT32"}}}, {"name": "StatefulPartitionedCall/sequential_4/residual_stack_._0._._3/conv1d_7/conv1d/required_space_to_batch_paddings/sub", "op": "Sub", "input": ["StatefulPartitionedCall/sequential_4/residual_stack_._0._._3/conv1d_7/conv1d/dilation_rate", "StatefulPartitionedCall/sequential_4/residual_stack_._0._._3/conv1d_7/conv1d/required_space_to_batch_paddings/mod"], "attr": {"T": {"type": "DT_INT32"}}}, {"name": "StatefulPartitionedCall/sequential_4/residual_stack_._0._._3/conv1d_7/conv1d/required_space_to_batch_paddings/mod_1", "op": "FloorMod", "input": ["StatefulPartitionedCall/sequential_4/residual_stack_._0._._3/conv1d_7/conv1d/required_space_to_batch_paddings/sub", "StatefulPartitionedCall/sequential_4/residual_stack_._0._._3/conv1d_7/conv1d/dilation_rate"], "attr": {"T": {"type": "DT_INT32"}}}, {"name": "StatefulPartitionedCall/sequential_4/residual_stack_._0._._3/conv1d_7/conv1d/required_space_to_batch_paddings/strided_slice_3", "op": "StridedSlice", "input": ["StatefulPartitionedCall/sequential_4/residual_stack_._0._._3/conv1d_7/conv1d/required_space_to_batch_paddings/mod_1", "StatefulPartitionedCall/sequential_4/residual_stack_._0._._3/conv1d_7/conv1d/required_space_to_batch_paddings/strided_slice_3/stack", "StatefulPartitionedCall/sequential_4/residual_stack_._0._._3/conv1d_7/conv1d/required_space_to_batch_paddings/strided_slice_3/stack_1", "StatefulPartitionedCall/sequential_4/residual_stack_._0._._3/conv1d_7/conv1d/required_space_to_batch_paddings/strided_slice_3/stack_2"], "attr": {"ellipsis_mask": {"i": "0"}, "begin_mask": {"i": "0"}, "shrink_axis_mask": {"i": "1"}, "new_axis_mask": {"i": "0"}, "Index": {"type": "DT_INT32"}, "end_mask": {"i": "0"}, "T": {"type": "DT_INT32"}}}, {"name": "StatefulPartitionedCall/sequential_4/residual_stack_._0._._3/conv1d_7/conv1d/required_space_to_batch_paddings/strided_slice_4", "op": "StridedSlice", "input": ["StatefulPartitionedCall/sequential_4/residual_stack_._0._._3/conv1d_7/conv1d/required_space_to_batch_paddings/mod_1", "StatefulPartitionedCall/sequential_4/residual_stack_._0._._3/conv1d_7/conv1d/required_space_to_batch_paddings/strided_slice_4/stack", "StatefulPartitionedCall/sequential_4/residual_stack_._0._._3/conv1d_7/conv1d/required_space_to_batch_paddings/strided_slice_4/stack_1", "StatefulPartitionedCall/sequential_4/residual_stack_._0._._3/conv1d_7/conv1d/required_space_to_batch_paddings/strided_slice_4/stack_2"], "attr": {"shrink_axis_mask": {"i": "1"}, "Index": {"type": "DT_INT32"}, "end_mask": {"i": "0"}, "T": {"type": "DT_INT32"}, "begin_mask": {"i": "0"}, "new_axis_mask": {"i": "0"}, "ellipsis_mask": {"i": "0"}}}, {"name": "StatefulPartitionedCall/sequential_4/residual_stack_._0._._3/conv1d_7/conv1d/required_space_to_batch_paddings/paddings/0", "op": "Pack", "input": ["StatefulPartitionedCall/sequential_4/residual_stack_._0._._3/conv1d_7/conv1d/required_space_to_batch_paddings/strided_slice_2", "StatefulPartitionedCall/sequential_4/residual_stack_._0._._3/conv1d_7/conv1d/required_space_to_batch_paddings/strided_slice_3"], "attr": {"N": {"i": "2"}, "axis": {"i": "0"}, "T": {"type": "DT_INT32"}}}, {"name": "StatefulPartitionedCall/sequential_4/residual_stack_._0._._3/conv1d_7/conv1d/required_space_to_batch_paddings/crops/0", "op": "Pack", "input": ["StatefulPartitionedCall/sequential_4/residual_stack_._0._._3/conv1d_7/conv1d/required_space_to_batch_paddings/crops/0/0", "StatefulPartitionedCall/sequential_4/residual_stack_._0._._3/conv1d_7/conv1d/required_space_to_batch_paddings/strided_slice_4"], "attr": {"axis": {"i": "0"}, "T": {"type": "DT_INT32"}, "N": {"i": "2"}}}, {"name": "ConstantFolding/StatefulPartitionedCall/sequential_4/residual_stack_._0._._3/conv1d_7/conv1d/required_space_to_batch_paddings/paddings_const_axis", "op": "Const", "input": ["^StatefulPartitionedCall/sequential_4/residual_stack_._0._._3/conv1d_7/conv1d/required_space_to_batch_paddings/paddings/0"], "attr": {"dtype": {"type": "DT_INT32"}, "value": {"tensor": {"dtype": "DT_INT32", "tensorShape": {}}}}}, {"name": "ConstantFolding/StatefulPartitionedCall/sequential_4/residual_stack_._0._._3/conv1d_7/conv1d/required_space_to_batch_paddings/crops_const_axis", "op": "Const", "input": ["^StatefulPartitionedCall/sequential_4/residual_stack_._0._._3/conv1d_7/conv1d/required_space_to_batch_paddings/crops/0"], "attr": {"dtype": {"type": "DT_INT32"}, "value": {"tensor": {"dtype": "DT_INT32", "tensorShape": {}}}}}, {"name": "StatefulPartitionedCall/sequential_4/residual_stack_._0._._3/conv1d_7/conv1d/required_space_to_batch_paddings/paddings", "op": "ExpandDims", "input": ["StatefulPartitionedCall/sequential_4/residual_stack_._0._._3/conv1d_7/conv1d/required_space_to_batch_paddings/paddings/0", "ConstantFolding/StatefulPartitionedCall/sequential_4/residual_stack_._0._._3/conv1d_7/conv1d/required_space_to_batch_paddings/paddings_const_axis"], "attr": {"Tdim": {"type": "DT_INT32"}, "T": {"type": "DT_INT32"}}}, {"name": "StatefulPartitionedCall/sequential_4/residual_stack_._0._._3/conv1d_7/conv1d/required_space_to_batch_paddings/crops", "op": "ExpandDims", "input": ["StatefulPartitionedCall/sequential_4/residual_stack_._0._._3/conv1d_7/conv1d/required_space_to_batch_paddings/crops/0", "ConstantFolding/StatefulPartitionedCall/sequential_4/residual_stack_._0._._3/conv1d_7/conv1d/required_space_to_batch_paddings/crops_const_axis"], "attr": {"Tdim": {"type": "DT_INT32"}, "T": {"type": "DT_INT32"}}}, {"name": "StatefulPartitionedCall/sequential_4/residual_stack_._0._._3/conv1d_7/conv1d/SpaceToBatchND", "op": "SpaceToBatchND", "input": ["StatefulPartitionedCall/sequential_4/residual_stack_._0._._3/tf_reflection_pad1d_3/MirrorPad", "StatefulPartitionedCall/sequential_4/residual_stack_._0._._3/conv1d_7/conv1d/SpaceToBatchND/block_shape", "StatefulPartitionedCall/sequential_4/residual_stack_._0._._3/conv1d_7/conv1d/required_space_to_batch_paddings/paddings"], "attr": {"Tblock_shape": {"type": "DT_INT32"}, "Tpaddings": {"type": "DT_INT32"}, "T": {"type": "DT_FLOAT"}}}, {"name": "StatefulPartitionedCall/sequential_4/residual_stack_._0._._3/conv1d_7/conv1d/ExpandDims", "op": "ExpandDims", "input": ["StatefulPartitionedCall/sequential_4/residual_stack_._0._._3/conv1d_7/conv1d/SpaceToBatchND", "StatefulPartitionedCall/sequential_4/residual_stack_._0._._3/conv1d_7/conv1d/ExpandDims/dim"], "attr": {"Tdim": {"type": "DT_INT32"}, "T": {"type": "DT_FLOAT"}}}, {"name": "StatefulPartitionedCall/sequential_4/residual_stack_._0._._3/conv1d_7/conv1d", "op": "Conv2D", "input": ["StatefulPartitionedCall/sequential_4/residual_stack_._0._._3/conv1d_7/conv1d/ExpandDims", "StatefulPartitionedCall/sequential_4/residual_stack_._0._._3/conv1d_7/conv1d/ExpandDims_1"], "device": "/device:CPU:0", "attr": {"explicit_paddings": {"list": {}}, "dilations": {"list": {"i": ["1", "1", "1", "1"]}}, "use_cudnn_on_gpu": {"b": true}, "strides": {"list": {"i": ["1", "1", "1", "1"]}}, "T": {"type": "DT_FLOAT"}, "data_format": {"s": "TkhXQw=="}, "padding": {"s": "VkFMSUQ="}}}, {"name": "StatefulPartitionedCall/sequential_4/residual_stack_._0._._3/conv1d_7/conv1d/Squeeze", "op": "Squeeze", "input": ["StatefulPartitionedCall/sequential_4/residual_stack_._0._._3/conv1d_7/conv1d"], "attr": {"squeeze_dims": {"list": {"i": ["-3"]}}, "T": {"type": "DT_FLOAT"}}}, {"name": "StatefulPartitionedCall/sequential_4/residual_stack_._0._._3/conv1d_7/conv1d/BatchToSpaceND", "op": "BatchToSpaceND", "input": ["StatefulPartitionedCall/sequential_4/residual_stack_._0._._3/conv1d_7/conv1d/Squeeze", "StatefulPartitionedCall/sequential_4/residual_stack_._0._._3/conv1d_7/conv1d/BatchToSpaceND/block_shape", "StatefulPartitionedCall/sequential_4/residual_stack_._0._._3/conv1d_7/conv1d/required_space_to_batch_paddings/crops"], "attr": {"Tcrops": {"type": "DT_INT32"}, "T": {"type": "DT_FLOAT"}, "Tblock_shape": {"type": "DT_INT32"}}}, {"name": "StatefulPartitionedCall/sequential_4/residual_stack_._0._._3/conv1d_7/BiasAdd", "op": "BiasAdd", "input": ["StatefulPartitionedCall/sequential_4/residual_stack_._0._._3/conv1d_7/conv1d/BatchToSpaceND", "unknown_22"], "attr": {"data_format": {"s": "TkhXQw=="}, "T": {"type": "DT_FLOAT"}}}, {"name": "StatefulPartitionedCall/sequential_4/residual_stack_._0._._3/leaky_re_lu_8/LeakyRelu", "op": "LeakyRelu", "input": ["StatefulPartitionedCall/sequential_4/residual_stack_._0._._3/conv1d_7/BiasAdd"], "attr": {"alpha": {"f": 0.2}, "T": {"type": "DT_FLOAT"}}}, {"name": "StatefulPartitionedCall/sequential_4/residual_stack_._0._._3/conv1d_8/conv1d/ExpandDims", "op": "ExpandDims", "input": ["StatefulPartitionedCall/sequential_4/residual_stack_._0._._3/leaky_re_lu_8/LeakyRelu", "StatefulPartitionedCall/sequential_4/residual_stack_._0._._3/conv1d_8/conv1d/ExpandDims/dim"], "attr": {"Tdim": {"type": "DT_INT32"}, "T": {"type": "DT_FLOAT"}}}, {"name": "StatefulPartitionedCall/sequential_4/residual_stack_._0._._3/conv1d_8/conv1d", "op": "_FusedConv2D", "input": ["StatefulPartitionedCall/sequential_4/residual_stack_._0._._3/conv1d_8/conv1d/ExpandDims", "StatefulPartitionedCall/sequential_4/residual_stack_._0._._3/conv1d_8/conv1d/ExpandDims_1", "unknown_24"], "device": "/device:CPU:0", "attr": {"num_args": {"i": "1"}, "data_format": {"s": "TkhXQw=="}, "strides": {"list": {"i": ["1", "1", "1", "1"]}}, "epsilon": {"f": 0.0}, "T": {"type": "DT_FLOAT"}, "fused_ops": {"list": {"s": ["Qmlhc0FkZA=="]}}, "padding": {"s": "VkFMSUQ="}, "dilations": {"list": {"i": ["1", "1", "1", "1"]}}, "explicit_paddings": {"list": {}}, "use_cudnn_on_gpu": {"b": true}}}, {"name": "StatefulPartitionedCall/sequential_4/residual_stack_._0._._3/conv1d_8/BiasAdd", "op": "Squeeze", "input": ["StatefulPartitionedCall/sequential_4/residual_stack_._0._._3/conv1d_8/conv1d"], "attr": {"T": {"type": "DT_FLOAT"}, "squeeze_dims": {"list": {"i": ["-3"]}}}}, {"name": "StatefulPartitionedCall/sequential_4/residual_stack_._0._._3/add", "op": "AddV2", "input": ["StatefulPartitionedCall/sequential_4/residual_stack_._0._._3/shortcut/BiasAdd", "StatefulPartitionedCall/sequential_4/residual_stack_._0._._3/conv1d_8/BiasAdd"], "attr": {"T": {"type": "DT_FLOAT"}}}, {"name": "StatefulPartitionedCall/sequential_4/leaky_re_lu_9/LeakyRelu", "op": "LeakyRelu", "input": ["StatefulPartitionedCall/sequential_4/residual_stack_._0._._3/add"], "attr": {"alpha": {"f": 0.2}, "T": {"type": "DT_FLOAT"}}}, {"name": "StatefulPartitionedCall/sequential_4/conv_transpose_._1/ExpandDims", "op": "ExpandDims", "input": ["StatefulPartitionedCall/sequential_4/leaky_re_lu_9/LeakyRelu", "StatefulPartitionedCall/sequential_4/conv_transpose_._1/ExpandDims/dim"], "attr": {"T": {"type": "DT_FLOAT"}, "Tdim": {"type": "DT_INT32"}}}, {"name": "StatefulPartitionedCall/sequential_4/conv_transpose_._1/conv2d_transpose_1/Shape", "op": "Shape", "input": ["StatefulPartitionedCall/sequential_4/conv_transpose_._1/ExpandDims"], "attr": {"T": {"type": "DT_FLOAT"}, "out_type": {"type": "DT_INT32"}}}, {"name": "StatefulPartitionedCall/sequential_4/conv_transpose_._1/conv2d_transpose_1/strided_slice", "op": "StridedSlice", "input": ["StatefulPartitionedCall/sequential_4/conv_transpose_._1/conv2d_transpose_1/Shape", "StatefulPartitionedCall/sequential_4/conv_transpose_._1/conv2d_transpose_1/strided_slice/stack", "StatefulPartitionedCall/sequential_4/conv_transpose_._1/conv2d_transpose_1/strided_slice/stack_1", "StatefulPartitionedCall/sequential_4/conv_transpose_._1/conv2d_transpose_1/strided_slice/stack_2"], "attr": {"T": {"type": "DT_INT32"}, "begin_mask": {"i": "0"}, "new_axis_mask": {"i": "0"}, "Index": {"type": "DT_INT32"}, "shrink_axis_mask": {"i": "1"}, "ellipsis_mask": {"i": "0"}, "end_mask": {"i": "0"}}}, {"name": "StatefulPartitionedCall/sequential_4/conv_transpose_._1/conv2d_transpose_1/strided_slice_1", "op": "StridedSlice", "input": ["StatefulPartitionedCall/sequential_4/conv_transpose_._1/conv2d_transpose_1/Shape", "StatefulPartitionedCall/sequential_4/conv_transpose_._1/conv2d_transpose_1/strided_slice_1/stack", "StatefulPartitionedCall/sequential_4/conv_transpose_._1/conv2d_transpose_1/strided_slice_1/stack_1", "StatefulPartitionedCall/sequential_4/conv_transpose_._1/conv2d_transpose_1/strided_slice_1/stack_2"], "attr": {"Index": {"type": "DT_INT32"}, "shrink_axis_mask": {"i": "1"}, "end_mask": {"i": "0"}, "new_axis_mask": {"i": "0"}, "T": {"type": "DT_INT32"}, "begin_mask": {"i": "0"}, "ellipsis_mask": {"i": "0"}}}, {"name": "StatefulPartitionedCall/sequential_4/conv_transpose_._1/conv2d_transpose_1/mul", "op": "Mul", "input": ["StatefulPartitionedCall/sequential_4/conv_transpose_._1/conv2d_transpose_1/strided_slice_1", "StatefulPartitionedCall/sequential_4/conv_transpose_._1/conv2d_transpose_1/mul/y"], "attr": {"T": {"type": "DT_INT32"}}}, {"name": "StatefulPartitionedCall/sequential_4/conv_transpose_._1/conv2d_transpose_1/stack", "op": "Pack", "input": ["StatefulPartitionedCall/sequential_4/conv_transpose_._1/conv2d_transpose_1/strided_slice", "StatefulPartitionedCall/sequential_4/conv_transpose_._1/conv2d_transpose_1/mul", "StatefulPartitionedCall/sequential_4/conv_transpose_._1/conv2d_transpose_1/stack/2", "StatefulPartitionedCall/sequential_4/conv_transpose_._1/conv2d_transpose_1/stack/3"], "attr": {"T": {"type": "DT_INT32"}, "axis": {"i": "0"}, "N": {"i": "4"}}}, {"name": "StatefulPartitionedCall/sequential_4/conv_transpose_._1/conv2d_transpose_1/conv2d_transpose", "op": "Conv2DBackpropInput", "input": ["StatefulPartitionedCall/sequential_4/conv_transpose_._1/conv2d_transpose_1/stack", "unknown_27", "StatefulPartitionedCall/sequential_4/conv_transpose_._1/ExpandDims"], "attr": {"padding": {"s": "U0FNRQ=="}, "strides": {"list": {"i": ["1", "4", "1", "1"]}}, "explicit_paddings": {"list": {}}, "dilations": {"list": {"i": ["1", "1", "1", "1"]}}, "T": {"type": "DT_FLOAT"}, "use_cudnn_on_gpu": {"b": true}, "data_format": {"s": "TkhXQw=="}}}, {"name": "StatefulPartitionedCall/sequential_4/conv_transpose_._1/conv2d_transpose_1/BiasAdd", "op": "BiasAdd", "input": ["StatefulPartitionedCall/sequential_4/conv_transpose_._1/conv2d_transpose_1/conv2d_transpose", "unknown_28"], "attr": {"T": {"type": "DT_FLOAT"}, "data_format": {"s": "TkhXQw=="}}}, {"name": "StatefulPartitionedCall/sequential_4/conv_transpose_._1/Squeeze", "op": "Squeeze", "input": ["StatefulPartitionedCall/sequential_4/conv_transpose_._1/conv2d_transpose_1/BiasAdd"], "attr": {"T": {"type": "DT_FLOAT"}, "squeeze_dims": {"list": {"i": ["2"]}}}}, {"name": "StatefulPartitionedCall/sequential_4/residual_stack_._1._._0/shortcut/conv1d/ExpandDims", "op": "ExpandDims", "input": ["StatefulPartitionedCall/sequential_4/conv_transpose_._1/Squeeze", "StatefulPartitionedCall/sequential_4/residual_stack_._1._._0/shortcut/conv1d/ExpandDims/dim"], "attr": {"Tdim": {"type": "DT_INT32"}, "T": {"type": "DT_FLOAT"}}}, {"name": "StatefulPartitionedCall/sequential_4/residual_stack_._1._._0/leaky_re_lu_10/LeakyRelu", "op": "LeakyRelu", "input": ["StatefulPartitionedCall/sequential_4/conv_transpose_._1/Squeeze"], "attr": {"alpha": {"f": 0.2}, "T": {"type": "DT_FLOAT"}}}, {"name": "StatefulPartitionedCall/sequential_4/residual_stack_._1._._0/shortcut/conv1d", "op": "_FusedConv2D", "input": ["StatefulPartitionedCall/sequential_4/residual_stack_._1._._0/shortcut/conv1d/ExpandDims", "StatefulPartitionedCall/sequential_4/residual_stack_._1._._0/shortcut/conv1d/ExpandDims_1", "unknown_34"], "device": "/device:CPU:0", "attr": {"dilations": {"list": {"i": ["1", "1", "1", "1"]}}, "strides": {"list": {"i": ["1", "1", "1", "1"]}}, "num_args": {"i": "1"}, "T": {"type": "DT_FLOAT"}, "data_format": {"s": "TkhXQw=="}, "padding": {"s": "VkFMSUQ="}, "explicit_paddings": {"list": {}}, "epsilon": {"f": 0.0}, "fused_ops": {"list": {"s": ["Qmlhc0FkZA=="]}}, "use_cudnn_on_gpu": {"b": true}}}, {"name": "StatefulPartitionedCall/sequential_4/residual_stack_._1._._0/tf_reflection_pad1d_4/MirrorPad", "op": "MirrorPad", "input": ["StatefulPartitionedCall/sequential_4/residual_stack_._1._._0/leaky_re_lu_10/LeakyRelu", "StatefulPartitionedCall/sequential_4/residual_stack_._1._._0/tf_reflection_pad1d_4/MirrorPad/paddings"], "attr": {"mode": {"s": "UkVGTEVDVA=="}, "T": {"type": "DT_FLOAT"}, "Tpaddings": {"type": "DT_INT32"}}}, {"name": "StatefulPartitionedCall/sequential_4/residual_stack_._1._._0/shortcut/BiasAdd", "op": "Squeeze", "input": ["StatefulPartitionedCall/sequential_4/residual_stack_._1._._0/shortcut/conv1d"], "attr": {"T": {"type": "DT_FLOAT"}, "squeeze_dims": {"list": {"i": ["-3"]}}}}, {"name": "StatefulPartitionedCall/sequential_4/residual_stack_._1._._0/conv1d_9/conv1d/ExpandDims", "op": "ExpandDims", "input": ["StatefulPartitionedCall/sequential_4/residual_stack_._1._._0/tf_reflection_pad1d_4/MirrorPad", "StatefulPartitionedCall/sequential_4/residual_stack_._1._._0/conv1d_9/conv1d/ExpandDims/dim"], "attr": {"Tdim": {"type": "DT_INT32"}, "T": {"type": "DT_FLOAT"}}}, {"name": "StatefulPartitionedCall/sequential_4/residual_stack_._1._._0/conv1d_9/conv1d", "op": "_FusedConv2D", "input": ["StatefulPartitionedCall/sequential_4/residual_stack_._1._._0/conv1d_9/conv1d/ExpandDims", "StatefulPartitionedCall/sequential_4/residual_stack_._1._._0/conv1d_9/conv1d/ExpandDims_1", "unknown_30"], "device": "/device:CPU:0", "attr": {"data_format": {"s": "TkhXQw=="}, "fused_ops": {"list": {"s": ["Qmlhc0FkZA=="]}}, "explicit_paddings": {"list": {}}, "use_cudnn_on_gpu": {"b": true}, "T": {"type": "DT_FLOAT"}, "epsilon": {"f": 0.0}, "dilations": {"list": {"i": ["1", "1", "1", "1"]}}, "padding": {"s": "VkFMSUQ="}, "num_args": {"i": "1"}, "strides": {"list": {"i": ["1", "1", "1", "1"]}}}}, {"name": "StatefulPartitionedCall/sequential_4/residual_stack_._1._._0/conv1d_9/BiasAdd", "op": "Squeeze", "input": ["StatefulPartitionedCall/sequential_4/residual_stack_._1._._0/conv1d_9/conv1d"], "attr": {"T": {"type": "DT_FLOAT"}, "squeeze_dims": {"list": {"i": ["-3"]}}}}, {"name": "StatefulPartitionedCall/sequential_4/residual_stack_._1._._0/leaky_re_lu_11/LeakyRelu", "op": "LeakyRelu", "input": ["StatefulPartitionedCall/sequential_4/residual_stack_._1._._0/conv1d_9/BiasAdd"], "attr": {"alpha": {"f": 0.2}, "T": {"type": "DT_FLOAT"}}}, {"name": "StatefulPartitionedCall/sequential_4/residual_stack_._1._._0/conv1d_10/conv1d/ExpandDims", "op": "ExpandDims", "input": ["StatefulPartitionedCall/sequential_4/residual_stack_._1._._0/leaky_re_lu_11/LeakyRelu", "StatefulPartitionedCall/sequential_4/residual_stack_._1._._0/conv1d_10/conv1d/ExpandDims/dim"], "attr": {"Tdim": {"type": "DT_INT32"}, "T": {"type": "DT_FLOAT"}}}, {"name": "StatefulPartitionedCall/sequential_4/residual_stack_._1._._0/conv1d_10/conv1d", "op": "_FusedConv2D", "input": ["StatefulPartitionedCall/sequential_4/residual_stack_._1._._0/conv1d_10/conv1d/ExpandDims", "StatefulPartitionedCall/sequential_4/residual_stack_._1._._0/conv1d_10/conv1d/ExpandDims_1", "unknown_32"], "device": "/device:CPU:0", "attr": {"explicit_paddings": {"list": {}}, "epsilon": {"f": 0.0}, "use_cudnn_on_gpu": {"b": true}, "dilations": {"list": {"i": ["1", "1", "1", "1"]}}, "strides": {"list": {"i": ["1", "1", "1", "1"]}}, "padding": {"s": "VkFMSUQ="}, "num_args": {"i": "1"}, "data_format": {"s": "TkhXQw=="}, "fused_ops": {"list": {"s": ["Qmlhc0FkZA=="]}}, "T": {"type": "DT_FLOAT"}}}, {"name": "StatefulPartitionedCall/sequential_4/residual_stack_._1._._0/conv1d_10/BiasAdd", "op": "Squeeze", "input": ["StatefulPartitionedCall/sequential_4/residual_stack_._1._._0/conv1d_10/conv1d"], "attr": {"T": {"type": "DT_FLOAT"}, "squeeze_dims": {"list": {"i": ["-3"]}}}}, {"name": "StatefulPartitionedCall/sequential_4/residual_stack_._1._._0/add", "op": "AddV2", "input": ["StatefulPartitionedCall/sequential_4/residual_stack_._1._._0/shortcut/BiasAdd", "StatefulPartitionedCall/sequential_4/residual_stack_._1._._0/conv1d_10/BiasAdd"], "attr": {"T": {"type": "DT_FLOAT"}}}, {"name": "StatefulPartitionedCall/sequential_4/residual_stack_._1._._1/shortcut/conv1d/ExpandDims", "op": "ExpandDims", "input": ["StatefulPartitionedCall/sequential_4/residual_stack_._1._._0/add", "StatefulPartitionedCall/sequential_4/residual_stack_._1._._1/shortcut/conv1d/ExpandDims/dim"], "attr": {"Tdim": {"type": "DT_INT32"}, "T": {"type": "DT_FLOAT"}}}, {"name": "StatefulPartitionedCall/sequential_4/residual_stack_._1._._1/leaky_re_lu_12/LeakyRelu", "op": "LeakyRelu", "input": ["StatefulPartitionedCall/sequential_4/residual_stack_._1._._0/add"], "attr": {"alpha": {"f": 0.2}, "T": {"type": "DT_FLOAT"}}}, {"name": "StatefulPartitionedCall/sequential_4/residual_stack_._1._._1/shortcut/conv1d", "op": "_FusedConv2D", "input": ["StatefulPartitionedCall/sequential_4/residual_stack_._1._._1/shortcut/conv1d/ExpandDims", "StatefulPartitionedCall/sequential_4/residual_stack_._1._._1/shortcut/conv1d/ExpandDims_1", "unknown_40"], "device": "/device:CPU:0", "attr": {"data_format": {"s": "TkhXQw=="}, "fused_ops": {"list": {"s": ["Qmlhc0FkZA=="]}}, "explicit_paddings": {"list": {}}, "use_cudnn_on_gpu": {"b": true}, "T": {"type": "DT_FLOAT"}, "epsilon": {"f": 0.0}, "dilations": {"list": {"i": ["1", "1", "1", "1"]}}, "padding": {"s": "VkFMSUQ="}, "num_args": {"i": "1"}, "strides": {"list": {"i": ["1", "1", "1", "1"]}}}}, {"name": "StatefulPartitionedCall/sequential_4/residual_stack_._1._._1/tf_reflection_pad1d_5/MirrorPad", "op": "MirrorPad", "input": ["StatefulPartitionedCall/sequential_4/residual_stack_._1._._1/leaky_re_lu_12/LeakyRelu", "StatefulPartitionedCall/sequential_4/residual_stack_._1._._1/tf_reflection_pad1d_5/MirrorPad/paddings"], "attr": {"mode": {"s": "UkVGTEVDVA=="}, "Tpaddings": {"type": "DT_INT32"}, "T": {"type": "DT_FLOAT"}}}, {"name": "StatefulPartitionedCall/sequential_4/residual_stack_._1._._1/shortcut/BiasAdd", "op": "Squeeze", "input": ["StatefulPartitionedCall/sequential_4/residual_stack_._1._._1/shortcut/conv1d"], "attr": {"T": {"type": "DT_FLOAT"}, "squeeze_dims": {"list": {"i": ["-3"]}}}}, {"name": "StatefulPartitionedCall/sequential_4/residual_stack_._1._._1/conv1d_11/conv1d/Shape", "op": "Shape", "input": ["StatefulPartitionedCall/sequential_4/residual_stack_._1._._1/tf_reflection_pad1d_5/MirrorPad"], "attr": {"T": {"type": "DT_FLOAT"}, "out_type": {"type": "DT_INT32"}}}, {"name": "StatefulPartitionedCall/sequential_4/residual_stack_._1._._1/conv1d_11/conv1d/strided_slice", "op": "StridedSlice", "input": ["StatefulPartitionedCall/sequential_4/residual_stack_._1._._1/conv1d_11/conv1d/Shape", "StatefulPartitionedCall/sequential_4/residual_stack_._1._._1/conv1d_11/conv1d/strided_slice/stack", "StatefulPartitionedCall/sequential_4/residual_stack_._1._._1/conv1d_11/conv1d/strided_slice/stack_1", "StatefulPartitionedCall/sequential_4/residual_stack_._1._._1/conv1d_11/conv1d/strided_slice/stack_2"], "attr": {"end_mask": {"i": "0"}, "T": {"type": "DT_INT32"}, "ellipsis_mask": {"i": "0"}, "begin_mask": {"i": "0"}, "shrink_axis_mask": {"i": "1"}, "Index": {"type": "DT_INT32"}, "new_axis_mask": {"i": "0"}}}, {"name": "ConstantFolding/StatefulPartitionedCall/sequential_4/residual_stack_._1._._1/conv1d_11/conv1d/stack_const_axis", "op": "Const", "input": ["^StatefulPartitionedCall/sequential_4/residual_stack_._1._._1/conv1d_11/conv1d/strided_slice"], "attr": {"value": {"tensor": {"dtype": "DT_INT32", "tensorShape": {}}}, "dtype": {"type": "DT_INT32"}}}, {"name": "StatefulPartitionedCall/sequential_4/residual_stack_._1._._1/conv1d_11/conv1d/stack", "op": "ExpandDims", "input": ["StatefulPartitionedCall/sequential_4/residual_stack_._1._._1/conv1d_11/conv1d/strided_slice", "ConstantFolding/StatefulPartitionedCall/sequential_4/residual_stack_._1._._1/conv1d_11/conv1d/stack_const_axis"], "attr": {"T": {"type": "DT_INT32"}, "Tdim": {"type": "DT_INT32"}}}, {"name": "StatefulPartitionedCall/sequential_4/residual_stack_._1._._1/conv1d_11/conv1d/required_space_to_batch_paddings/mod", "op": "FloorMod", "input": ["StatefulPartitionedCall/sequential_4/residual_stack_._1._._1/conv1d_11/conv1d/stack", "StatefulPartitionedCall/sequential_4/residual_stack_._1._._1/conv1d_11/conv1d/dilation_rate"], "attr": {"T": {"type": "DT_INT32"}}}, {"name": "StatefulPartitionedCall/sequential_4/residual_stack_._1._._1/conv1d_11/conv1d/required_space_to_batch_paddings/sub", "op": "Sub", "input": ["StatefulPartitionedCall/sequential_4/residual_stack_._1._._1/conv1d_11/conv1d/dilation_rate", "StatefulPartitionedCall/sequential_4/residual_stack_._1._._1/conv1d_11/conv1d/required_space_to_batch_paddings/mod"], "attr": {"T": {"type": "DT_INT32"}}}, {"name": "StatefulPartitionedCall/sequential_4/residual_stack_._1._._1/conv1d_11/conv1d/required_space_to_batch_paddings/mod_1", "op": "FloorMod", "input": ["StatefulPartitionedCall/sequential_4/residual_stack_._1._._1/conv1d_11/conv1d/required_space_to_batch_paddings/sub", "StatefulPartitionedCall/sequential_4/residual_stack_._1._._1/conv1d_11/conv1d/dilation_rate"], "attr": {"T": {"type": "DT_INT32"}}}, {"name": "StatefulPartitionedCall/sequential_4/residual_stack_._1._._1/conv1d_11/conv1d/required_space_to_batch_paddings/strided_slice_3", "op": "StridedSlice", "input": ["StatefulPartitionedCall/sequential_4/residual_stack_._1._._1/conv1d_11/conv1d/required_space_to_batch_paddings/mod_1", "StatefulPartitionedCall/sequential_4/residual_stack_._1._._1/conv1d_11/conv1d/required_space_to_batch_paddings/strided_slice_3/stack", "StatefulPartitionedCall/sequential_4/residual_stack_._1._._1/conv1d_11/conv1d/required_space_to_batch_paddings/strided_slice_3/stack_1", "StatefulPartitionedCall/sequential_4/residual_stack_._1._._1/conv1d_11/conv1d/required_space_to_batch_paddings/strided_slice_3/stack_2"], "attr": {"Index": {"type": "DT_INT32"}, "shrink_axis_mask": {"i": "1"}, "end_mask": {"i": "0"}, "new_axis_mask": {"i": "0"}, "T": {"type": "DT_INT32"}, "ellipsis_mask": {"i": "0"}, "begin_mask": {"i": "0"}}}, {"name": "StatefulPartitionedCall/sequential_4/residual_stack_._1._._1/conv1d_11/conv1d/required_space_to_batch_paddings/strided_slice_4", "op": "StridedSlice", "input": ["StatefulPartitionedCall/sequential_4/residual_stack_._1._._1/conv1d_11/conv1d/required_space_to_batch_paddings/mod_1", "StatefulPartitionedCall/sequential_4/residual_stack_._1._._1/conv1d_11/conv1d/required_space_to_batch_paddings/strided_slice_4/stack", "StatefulPartitionedCall/sequential_4/residual_stack_._1._._1/conv1d_11/conv1d/required_space_to_batch_paddings/strided_slice_4/stack_1", "StatefulPartitionedCall/sequential_4/residual_stack_._1._._1/conv1d_11/conv1d/required_space_to_batch_paddings/strided_slice_4/stack_2"], "attr": {"new_axis_mask": {"i": "0"}, "ellipsis_mask": {"i": "0"}, "begin_mask": {"i": "0"}, "Index": {"type": "DT_INT32"}, "shrink_axis_mask": {"i": "1"}, "end_mask": {"i": "0"}, "T": {"type": "DT_INT32"}}}, {"name": "StatefulPartitionedCall/sequential_4/residual_stack_._1._._1/conv1d_11/conv1d/required_space_to_batch_paddings/paddings/0", "op": "Pack", "input": ["StatefulPartitionedCall/sequential_4/residual_stack_._1._._1/conv1d_11/conv1d/required_space_to_batch_paddings/strided_slice_2", "StatefulPartitionedCall/sequential_4/residual_stack_._1._._1/conv1d_11/conv1d/required_space_to_batch_paddings/strided_slice_3"], "attr": {"T": {"type": "DT_INT32"}, "N": {"i": "2"}, "axis": {"i": "0"}}}, {"name": "StatefulPartitionedCall/sequential_4/residual_stack_._1._._1/conv1d_11/conv1d/required_space_to_batch_paddings/crops/0", "op": "Pack", "input": ["StatefulPartitionedCall/sequential_4/residual_stack_._1._._1/conv1d_11/conv1d/required_space_to_batch_paddings/crops/0/0", "StatefulPartitionedCall/sequential_4/residual_stack_._1._._1/conv1d_11/conv1d/required_space_to_batch_paddings/strided_slice_4"], "attr": {"T": {"type": "DT_INT32"}, "axis": {"i": "0"}, "N": {"i": "2"}}}, {"name": "ConstantFolding/StatefulPartitionedCall/sequential_4/residual_stack_._1._._1/conv1d_11/conv1d/required_space_to_batch_paddings/paddings_const_axis", "op": "Const", "input": ["^StatefulPartitionedCall/sequential_4/residual_stack_._1._._1/conv1d_11/conv1d/required_space_to_batch_paddings/paddings/0"], "attr": {"dtype": {"type": "DT_INT32"}, "value": {"tensor": {"dtype": "DT_INT32", "tensorShape": {}}}}}, {"name": "ConstantFolding/StatefulPartitionedCall/sequential_4/residual_stack_._1._._1/conv1d_11/conv1d/required_space_to_batch_paddings/crops_const_axis", "op": "Const", "input": ["^StatefulPartitionedCall/sequential_4/residual_stack_._1._._1/conv1d_11/conv1d/required_space_to_batch_paddings/crops/0"], "attr": {"dtype": {"type": "DT_INT32"}, "value": {"tensor": {"dtype": "DT_INT32", "tensorShape": {}}}}}, {"name": "StatefulPartitionedCall/sequential_4/residual_stack_._1._._1/conv1d_11/conv1d/required_space_to_batch_paddings/paddings", "op": "ExpandDims", "input": ["StatefulPartitionedCall/sequential_4/residual_stack_._1._._1/conv1d_11/conv1d/required_space_to_batch_paddings/paddings/0", "ConstantFolding/StatefulPartitionedCall/sequential_4/residual_stack_._1._._1/conv1d_11/conv1d/required_space_to_batch_paddings/paddings_const_axis"], "attr": {"Tdim": {"type": "DT_INT32"}, "T": {"type": "DT_INT32"}}}, {"name": "StatefulPartitionedCall/sequential_4/residual_stack_._1._._1/conv1d_11/conv1d/required_space_to_batch_paddings/crops", "op": "ExpandDims", "input": ["StatefulPartitionedCall/sequential_4/residual_stack_._1._._1/conv1d_11/conv1d/required_space_to_batch_paddings/crops/0", "ConstantFolding/StatefulPartitionedCall/sequential_4/residual_stack_._1._._1/conv1d_11/conv1d/required_space_to_batch_paddings/crops_const_axis"], "attr": {"Tdim": {"type": "DT_INT32"}, "T": {"type": "DT_INT32"}}}, {"name": "StatefulPartitionedCall/sequential_4/residual_stack_._1._._1/conv1d_11/conv1d/SpaceToBatchND", "op": "SpaceToBatchND", "input": ["StatefulPartitionedCall/sequential_4/residual_stack_._1._._1/tf_reflection_pad1d_5/MirrorPad", "StatefulPartitionedCall/sequential_4/residual_stack_._1._._1/conv1d_11/conv1d/SpaceToBatchND/block_shape", "StatefulPartitionedCall/sequential_4/residual_stack_._1._._1/conv1d_11/conv1d/required_space_to_batch_paddings/paddings"], "attr": {"Tblock_shape": {"type": "DT_INT32"}, "T": {"type": "DT_FLOAT"}, "Tpaddings": {"type": "DT_INT32"}}}, {"name": "StatefulPartitionedCall/sequential_4/residual_stack_._1._._1/conv1d_11/conv1d/ExpandDims", "op": "ExpandDims", "input": ["StatefulPartitionedCall/sequential_4/residual_stack_._1._._1/conv1d_11/conv1d/SpaceToBatchND", "StatefulPartitionedCall/sequential_4/residual_stack_._1._._1/conv1d_11/conv1d/ExpandDims/dim"], "attr": {"Tdim": {"type": "DT_INT32"}, "T": {"type": "DT_FLOAT"}}}, {"name": "StatefulPartitionedCall/sequential_4/residual_stack_._1._._1/conv1d_11/conv1d", "op": "Conv2D", "input": ["StatefulPartitionedCall/sequential_4/residual_stack_._1._._1/conv1d_11/conv1d/ExpandDims", "StatefulPartitionedCall/sequential_4/residual_stack_._1._._1/conv1d_11/conv1d/ExpandDims_1"], "device": "/device:CPU:0", "attr": {"explicit_paddings": {"list": {}}, "use_cudnn_on_gpu": {"b": true}, "dilations": {"list": {"i": ["1", "1", "1", "1"]}}, "stri…
onedCall/PartitionedCall/strided_slice", "ConstantFolding/StatefulPartitionedCall/PartitionedCall/conv1d_transpose/concat/values_0_const_axis"], "attr": {"Tdim": {"type": "DT_INT32"}, "T": {"type": "DT_INT32"}}}, {"name": "StatefulPartitionedCall/PartitionedCall/conv1d_transpose/concat/values_2", "op": "Pack", "input": ["StatefulPartitionedCall/PartitionedCall/mul", "StatefulPartitionedCall/PartitionedCall/conv1d_transpose/concat/values_2/1"], "attr": {"T": {"type": "DT_INT32"}, "axis": {"i": "0"}, "N": {"i": "2"}}}, {"name": "StatefulPartitionedCall/PartitionedCall/conv1d_transpose/concat", "op": "ConcatV2", "input": ["StatefulPartitionedCall/PartitionedCall/conv1d_transpose/concat/values_0", "StatefulPartitionedCall/PartitionedCall/conv1d_transpose/concat/values_1", "StatefulPartitionedCall/PartitionedCall/conv1d_transpose/concat/values_2", "StatefulPartitionedCall/PartitionedCall/conv1d_transpose/concat/axis"], "attr": {"T": {"type": "DT_INT32"}, "Tidx": {"type": "DT_INT32"}, "N": {"i": "3"}}}, {"name": "StatefulPartitionedCall/PartitionedCall/conv1d_transpose", "op": "Conv2DBackpropInput", "input": ["StatefulPartitionedCall/PartitionedCall/conv1d_transpose/concat", "StatefulPartitionedCall/PartitionedCall/conv1d_transpose/ExpandDims_1", "StatefulPartitionedCall/PartitionedCall/conv1d_transpose/ExpandDims"], "attr": {"T": {"type": "DT_FLOAT"}, "padding": {"s": "U0FNRQ=="}, "dilations": {"list": {"i": ["1", "1", "1", "1"]}}, "explicit_paddings": {"list": {}}, "use_cudnn_on_gpu": {"b": true}, "data_format": {"s": "TkhXQw=="}, "strides": {"list": {"i": ["1", "1", "4", "1"]}}}}, {"name": "StatefulPartitionedCall/PartitionedCall/conv1d_transpose/Squeeze", "op": "Squeeze", "input": ["StatefulPartitionedCall/PartitionedCall/conv1d_transpose"], "attr": {"squeeze_dims": {"list": {"i": ["1"]}}, "T": {"type": "DT_FLOAT"}}}, {"name": "StatefulPartitionedCall/PartitionedCall/Pad", "op": "Pad", "input": ["StatefulPartitionedCall/PartitionedCall/conv1d_transpose/Squeeze", "StatefulPartitionedCall/PartitionedCall/Pad/paddings"], "attr": {"Tpaddings": {"type": "DT_INT32"}, "T": {"type": "DT_FLOAT"}}}, {"name": "StatefulPartitionedCall/PartitionedCall/conv1d/ExpandDims", "op": "ExpandDims", "input": ["StatefulPartitionedCall/PartitionedCall/Pad", "StatefulPartitionedCall/PartitionedCall/conv1d/ExpandDims/dim"], "attr": {"Tdim": {"type": "DT_INT32"}, "T": {"type": "DT_FLOAT"}}}, {"name": "StatefulPartitionedCall/PartitionedCall/conv1d", "op": "Conv2D", "input": ["StatefulPartitionedCall/PartitionedCall/conv1d/ExpandDims", "StatefulPartitionedCall/PartitionedCall/conv1d/ExpandDims_1"], "device": "/device:CPU:0", "attr": {"data_format": {"s": "TkhXQw=="}, "T": {"type": "DT_FLOAT"}, "explicit_paddings": {"list": {}}, "use_cudnn_on_gpu": {"b": true}, "dilations": {"list": {"i": ["1", "1", "1", "1"]}}, "strides": {"list": {"i": ["1", "1", "1", "1"]}}, "padding": {"s": "VkFMSUQ="}}}, {"name": "StatefulPartitionedCall/PartitionedCall/conv1d/Squeeze", "op": "Squeeze", "input": ["StatefulPartitionedCall/PartitionedCall/conv1d"], "attr": {"T": {"type": "DT_FLOAT"}, "squeeze_dims": {"list": {"i": ["-3"]}}}}, {"name": "Identity", "op": "Identity", "input": ["StatefulPartitionedCall/PartitionedCall/conv1d/Squeeze"], "attr": {"T": {"type": "DT_FLOAT"}}}], "library": {}, "versions": {"producer": 716}}, "weightsManifest": [{"paths": ["group1-shard1of3.bin", "group1-shard2of3.bin", "group1-shard3of3.bin"], "weights": [{"name": "StatefulPartitionedCall/PartitionedCall/strided_slice/stack", "shape": [1], "dtype": "int32"}, {"name": "StatefulPartitionedCall/PartitionedCall/strided_slice/stack_1", "shape": [1], "dtype": "int32"}, {"name": "StatefulPartitionedCall/PartitionedCall/strided_slice/stack_2", "shape": [1], "dtype": "int32"}, {"name": "StatefulPartitionedCall/PartitionedCall/conv1d_transpose/concat/values_1", "shape": [1], "dtype": "int32"}, {"name": "StatefulPartitionedCall/PartitionedCall/strided_slice_1/stack", "shape": [1], "dtype": "int32"}, {"name": "StatefulPartitionedCall/PartitionedCall/strided_slice_1/stack_1", "shape": [1], "dtype": "int32"}, {"name": "StatefulPartitionedCall/PartitionedCall/strided_slice_1/stack_2", "shape": [1], "dtype": "int32"}, {"name": "StatefulPartitionedCall/PartitionedCall/mul/y", "shape": [], "dtype": "int32"}, {"name": "StatefulPartitionedCall/PartitionedCall/conv1d_transpose/concat/values_2/1", "shape": [], "dtype": "int32"}, {"name": "StatefulPartitionedCall/PartitionedCall/conv1d_transpose/concat/axis", "shape": [], "dtype": "int32"}, {"name": "StatefulPartitionedCall/PartitionedCall/conv1d_transpose/ExpandDims_1", "shape": [1, 4, 4, 4], "dtype": "float32"}, {"name": "StatefulPartitionedCall/sequential_4/residual_stack_._2._._3/shortcut/conv1d/ExpandDims/dim", "shape": [], "dtype": "int32"}, {"name": "StatefulPartitionedCall/sequential_4/residual_stack_._2._._3/shortcut/conv1d/ExpandDims_1", "shape": [1, 1, 48, 48], "dtype": "float32"}, {"name": "unknown_78", "shape": [48], "dtype": "float32"}, {"name": "StatefulPartitionedCall/sequential_4/residual_stack_._2._._3/conv1d_23/conv1d/SpaceToBatchND/block_shape", "shape": [1], "dtype": "int32"}, {"name": "StatefulPartitionedCall/sequential_4/residual_stack_._2._._3/conv1d_23/conv1d/required_space_to_batch_paddings/strided_slice_2", "shape": [], "dtype": "int32"}, {"name": "StatefulPartitionedCall/sequential_4/residual_stack_._2._._3/conv1d_23/conv1d/required_space_to_batch_paddings/strided_slice_3/stack", "shape": [1], "dtype": "int32"}, {"name": "StatefulPartitionedCall/sequential_4/residual_stack_._2._._3/conv1d_23/conv1d/required_space_to_batch_paddings/strided_slice_3/stack_1", "shape": [1], "dtype": "int32"}, {"name": "StatefulPartitionedCall/sequential_4/residual_stack_._2._._3/conv1d_23/conv1d/required_space_to_batch_paddings/strided_slice_3/stack_2", "shape": [1], "dtype": "int32"}, {"name": "StatefulPartitionedCall/sequential_4/residual_stack_._2._._3/conv1d_23/conv1d/ExpandDims/dim", "shape": [], "dtype": "int32"}, {"name": "StatefulPartitionedCall/sequential_4/residual_stack_._2._._3/conv1d_23/conv1d/ExpandDims_1", "shape": [1, 3, 48, 48], "dtype": "float32"}, {"name": "StatefulPartitionedCall/sequential_4/residual_stack_._2._._3/conv1d_23/conv1d/BatchToSpaceND/block_shape", "shape": [1], "dtype": "int32"}, {"name": "StatefulPartitionedCall/sequential_4/residual_stack_._2._._3/conv1d_23/conv1d/required_space_to_batch_paddings/crops/0/0", "shape": [], "dtype": "int32"}, {"name": "StatefulPartitionedCall/sequential_4/residual_stack_._2._._2/shortcut/conv1d/ExpandDims/dim", "shape": [], "dtype": "int32"}, {"name": "StatefulPartitionedCall/sequential_4/residual_stack_._2._._2/shortcut/conv1d/ExpandDims_1", "shape": [1, 1, 48, 48], "dtype": "float32"}, {"name": "unknown_72", "shape": [48], "dtype": "float32"}, {"name": "StatefulPartitionedCall/sequential_4/residual_stack_._2._._2/conv1d_21/conv1d/SpaceToBatchND/block_shape", "shape": [1], "dtype": "int32"}, {"name": "StatefulPartitionedCall/sequential_4/residual_stack_._2._._2/conv1d_21/conv1d/required_space_to_batch_paddings/strided_slice_2", "shape": [], "dtype": "int32"}, {"name": "StatefulPartitionedCall/sequential_4/residual_stack_._2._._2/conv1d_21/conv1d/required_space_to_batch_paddings/strided_slice_3/stack", "shape": [1], "dtype": "int32"}, {"name": "StatefulPartitionedCall/sequential_4/residual_stack_._2._._2/conv1d_21/conv1d/required_space_to_batch_paddings/strided_slice_3/stack_1", "shape": [1], "dtype": "int32"}, {"name": "StatefulPartitionedCall/sequential_4/residual_stack_._2._._2/conv1d_21/conv1d/required_space_to_batch_paddings/strided_slice_3/stack_2", "shape": [1], "dtype": "int32"}, {"name": "StatefulPartitionedCall/sequential_4/residual_stack_._2._._2/conv1d_21/conv1d/ExpandDims/dim", "shape": [], "dtype": "int32"}, {"name": "StatefulPartitionedCall/sequential_4/residual_stack_._2._._2/conv1d_21/conv1d/ExpandDims_1", "shape": [1, 3, 48, 48], "dtype": "float32"}, {"name": "StatefulPartitionedCall/sequential_4/residual_stack_._2._._2/conv1d_21/conv1d/BatchToSpaceND/block_shape", "shape": [1], "dtype": "int32"}, {"name": "StatefulPartitionedCall/sequential_4/residual_stack_._2._._2/conv1d_21/conv1d/required_space_to_batch_paddings/crops/0/0", "shape": [], "dtype": "int32"}, {"name": "StatefulPartitionedCall/sequential_4/residual_stack_._2._._1/shortcut/conv1d/ExpandDims/dim", "shape": [], "dtype": "int32"}, {"name": "StatefulPartitionedCall/sequential_4/residual_stack_._2._._1/shortcut/conv1d/ExpandDims_1", "shape": [1, 1, 48, 48], "dtype": "float32"}, {"name": "unknown_66", "shape": [48], "dtype": "float32"}, {"name": "StatefulPartitionedCall/sequential_4/residual_stack_._2._._1/conv1d_19/conv1d/SpaceToBatchND/block_shape", "shape": [1], "dtype": "int32"}, {"name": "StatefulPartitionedCall/sequential_4/residual_stack_._2._._1/conv1d_19/conv1d/required_space_to_batch_paddings/strided_slice_2", "shape": [], "dtype": "int32"}, {"name": "StatefulPartitionedCall/sequential_4/residual_stack_._2._._1/conv1d_19/conv1d/required_space_to_batch_paddings/strided_slice_3/stack", "shape": [1], "dtype": "int32"}, {"name": "StatefulPartitionedCall/sequential_4/residual_stack_._2._._1/conv1d_19/conv1d/required_space_to_batch_paddings/strided_slice_3/stack_1", "shape": [1], "dtype": "int32"}, {"name": "StatefulPartitionedCall/sequential_4/residual_stack_._2._._1/conv1d_19/conv1d/required_space_to_batch_paddings/strided_slice_3/stack_2", "shape": [1], "dtype": "int32"}, {"name": "StatefulPartitionedCall/sequential_4/residual_stack_._2._._1/conv1d_19/conv1d/ExpandDims/dim", "shape": [], "dtype": "int32"}, {"name": "StatefulPartitionedCall/sequential_4/residual_stack_._2._._1/conv1d_19/conv1d/ExpandDims_1", "shape": [1, 3, 48, 48], "dtype": "float32"}, {"name": "StatefulPartitionedCall/sequential_4/residual_stack_._2._._1/conv1d_19/conv1d/BatchToSpaceND/block_shape", "shape": [1], "dtype": "int32"}, {"name": "StatefulPartitionedCall/sequential_4/residual_stack_._2._._1/conv1d_19/conv1d/required_space_to_batch_paddings/crops/0/0", "shape": [], "dtype": "int32"}, {"name": "StatefulPartitionedCall/sequential_4/residual_stack_._2._._0/shortcut/conv1d/ExpandDims/dim", "shape": [], "dtype": "int32"}, {"name": "StatefulPartitionedCall/sequential_4/residual_stack_._2._._0/shortcut/conv1d/ExpandDims_1", "shape": [1, 1, 48, 48], "dtype": "float32"}, {"name": "unknown_60", "shape": [48], "dtype": "float32"}, {"name": "StatefulPartitionedCall/sequential_4/conv_transpose_._2/conv2d_transpose_2/strided_slice/stack", "shape": [1], "dtype": "int32"}, {"name": "StatefulPartitionedCall/sequential_4/conv_transpose_._2/conv2d_transpose_2/strided_slice/stack_1", "shape": [1], "dtype": "int32"}, {"name": "StatefulPartitionedCall/sequential_4/conv_transpose_._2/conv2d_transpose_2/strided_slice/stack_2", "shape": [1], "dtype": "int32"}, {"name": "StatefulPartitionedCall/sequential_4/conv_transpose_._2/conv2d_transpose_2/strided_slice_1/stack", "shape": [1], "dtype": "int32"}, {"name": "StatefulPartitionedCall/sequential_4/conv_transpose_._2/conv2d_transpose_2/strided_slice_1/stack_1", "shape": [1], "dtype": "int32"}, {"name": "StatefulPartitionedCall/sequential_4/conv_transpose_._2/conv2d_transpose_2/strided_slice_1/stack_2", "shape": [1], "dtype": "int32"}, {"name": "StatefulPartitionedCall/sequential_4/conv_transpose_._2/conv2d_transpose_2/mul/y", "shape": [], "dtype": "int32"}, {"name": "StatefulPartitionedCall/sequential_4/conv_transpose_._2/conv2d_transpose_2/stack/2", "shape": [], "dtype": "int32"}, {"name": "StatefulPartitionedCall/sequential_4/conv_transpose_._2/conv2d_transpose_2/stack/3", "shape": [], "dtype": "int32"}, {"name": "unknown_53", "shape": [4, 1, 48, 96], "dtype": "float32"}, {"name": "StatefulPartitionedCall/sequential_4/residual_stack_._1._._3/shortcut/conv1d/ExpandDims/dim", "shape": [], "dtype": "int32"}, {"name": "StatefulPartitionedCall/sequential_4/residual_stack_._1._._3/shortcut/conv1d/ExpandDims_1", "shape": [1, 1, 96, 96], "dtype": "float32"}, {"name": "unknown_52", "shape": [96], "dtype": "float32"}, {"name": "StatefulPartitionedCall/sequential_4/residual_stack_._1._._3/conv1d_15/conv1d/SpaceToBatchND/block_shape", "shape": [1], "dtype": "int32"}, {"name": "StatefulPartitionedCall/sequential_4/residual_stack_._1._._3/conv1d_15/conv1d/required_space_to_batch_paddings/strided_slice_2", "shape": [], "dtype": "int32"}, {"name": "StatefulPartitionedCall/sequential_4/residual_stack_._1._._3/conv1d_15/conv1d/required_space_to_batch_paddings/strided_slice_3/stack", "shape": [1], "dtype": "int32"}, {"name": "StatefulPartitionedCall/sequential_4/residual_stack_._1._._3/conv1d_15/conv1d/required_space_to_batch_paddings/strided_slice_3/stack_1", "shape": [1], "dtype": "int32"}, {"name": "StatefulPartitionedCall/sequential_4/residual_stack_._1._._3/conv1d_15/conv1d/required_space_to_batch_paddings/strided_slice_3/stack_2", "shape": [1], "dtype": "int32"}, {"name": "StatefulPartitionedCall/sequential_4/residual_stack_._1._._3/conv1d_15/conv1d/ExpandDims/dim", "shape": [], "dtype": "int32"}, {"name": "StatefulPartitionedCall/sequential_4/residual_stack_._1._._3/conv1d_15/conv1d/ExpandDims_1", "shape": [1, 3, 96, 96], "dtype": "float32"}, {"name": "StatefulPartitionedCall/sequential_4/residual_stack_._1._._3/conv1d_15/conv1d/BatchToSpaceND/block_shape", "shape": [1], "dtype": "int32"}, {"name": "StatefulPartitionedCall/sequential_4/residual_stack_._1._._3/conv1d_15/conv1d/required_space_to_batch_paddings/crops/0/0", "shape": [], "dtype": "int32"}, {"name": "StatefulPartitionedCall/sequential_4/residual_stack_._1._._2/shortcut/conv1d/ExpandDims/dim", "shape": [], "dtype": "int32"}, {"name": "StatefulPartitionedCall/sequential_4/residual_stack_._1._._2/shortcut/conv1d/ExpandDims_1", "shape": [1, 1, 96, 96], "dtype": "float32"}, {"name": "unknown_46", "shape": [96], "dtype": "float32"}, {"name": "StatefulPartitionedCall/sequential_4/residual_stack_._1._._2/conv1d_13/conv1d/SpaceToBatchND/block_shape", "shape": [1], "dtype": "int32"}, {"name": "StatefulPartitionedCall/sequential_4/residual_stack_._1._._2/conv1d_13/conv1d/required_space_to_batch_paddings/strided_slice_2", "shape": [], "dtype": "int32"}, {"name": "StatefulPartitionedCall/sequential_4/residual_stack_._1._._2/conv1d_13/conv1d/required_space_to_batch_paddings/strided_slice_3/stack", "shape": [1], "dtype": "int32"}, {"name": "StatefulPartitionedCall/sequential_4/residual_stack_._1._._2/conv1d_13/conv1d/required_space_to_batch_paddings/strided_slice_3/stack_1", "shape": [1], "dtype": "int32"}, {"name": "StatefulPartitionedCall/sequential_4/residual_stack_._1._._2/conv1d_13/conv1d/required_space_to_batch_paddings/strided_slice_3/stack_2", "shape": [1], "dtype": "int32"}, {"name": "StatefulPartitionedCall/sequential_4/residual_stack_._1._._2/conv1d_13/conv1d/ExpandDims/dim", "shape": [], "dtype": "int32"}, {"name": "StatefulPartitionedCall/sequential_4/residual_stack_._1._._2/conv1d_13/conv1d/ExpandDims_1", "shape": [1, 3, 96, 96], "dtype": "float32"}, {"name": "StatefulPartitionedCall/sequential_4/residual_stack_._1._._2/conv1d_13/conv1d/BatchToSpaceND/block_shape", "shape": [1], "dtype": "int32"}, {"name": "StatefulPartitionedCall/sequential_4/residual_stack_._1._._2/conv1d_13/conv1d/required_space_to_batch_paddings/crops/0/0", "shape": [], "dtype": "int32"}, {"name": "StatefulPartitionedCall/sequential_4/residual_stack_._1._._1/shortcut/conv1d/ExpandDims/dim", "shape": [], "dtype": "int32"}, {"name": "StatefulPartitionedCall/sequential_4/residual_stack_._1._._1/shortcut/conv1d/ExpandDims_1", "shape": [1, 1, 96, 96], "dtype": "float32"}, {"name": "unknown_40", "shape": [96], "dtype": "float32"}, {"name": "StatefulPartitionedCall/sequential_4/residual_stack_._1._._1/conv1d_11/conv1d/SpaceToBatchND/block_shape", "shape": [1], "dtype": "int32"}, {"name": "StatefulPartitionedCall/sequential_4/residual_stack_._1._._1/conv1d_11/conv1d/required_space_to_batch_paddings/strided_slice_2", "shape": [], "dtype": "int32"}, {"name": "StatefulPartitionedCall/sequential_4/residual_stack_._1._._1/conv1d_11/conv1d/required_space_to_batch_paddings/strided_slice_3/stack", "shape": [1], "dtype": "int32"}, {"name": "StatefulPartitionedCall/sequential_4/residual_stack_._1._._1/conv1d_11/conv1d/required_space_to_batch_paddings/strided_slice_3/stack_1", "shape": [1], "dtype": "int32"}, {"name": "StatefulPartitionedCall/sequential_4/residual_stack_._1._._1/conv1d_11/conv1d/required_space_to_batch_paddings/strided_slice_3/stack_2", "shape": [1], "dtype": "int32"}, {"name": "StatefulPartitionedCall/sequential_4/residual_stack_._1._._1/conv1d_11/conv1d/ExpandDims/dim", "shape": [], "dtype": "int32"}, {"name": "StatefulPartitionedCall/sequential_4/residual_stack_._1._._1/conv1d_11/conv1d/ExpandDims_1", "shape": [1, 3, 96, 96], "dtype": "float32"}, {"name": "StatefulPartitionedCall/sequential_4/residual_stack_._1._._1/conv1d_11/conv1d/BatchToSpaceND/block_shape", "shape": [1], "dtype": "int32"}, {"name": "StatefulPartitionedCall/sequential_4/residual_stack_._1._._1/conv1d_11/conv1d/required_space_to_batch_paddings/crops/0/0", "shape": [], "dtype": "int32"}, {"name": "StatefulPartitionedCall/sequential_4/residual_stack_._1._._0/shortcut/conv1d/ExpandDims/dim", "shape": [], "dtype": "int32"}, {"name": "StatefulPartitionedCall/sequential_4/residual_stack_._1._._0/shortcut/conv1d/ExpandDims_1", "shape": [1, 1, 96, 96], "dtype": "float32"}, {"name": "unknown_34", "shape": [96], "dtype": "float32"}, {"name": "StatefulPartitionedCall/sequential_4/conv_transpose_._1/conv2d_transpose_1/strided_slice/stack", "shape": [1], "dtype": "int32"}, {"name": "StatefulPartitionedCall/sequential_4/conv_transpose_._1/conv2d_transpose_1/strided_slice/stack_1", "shape": [1], "dtype": "int32"}, {"name": "StatefulPartitionedCall/sequential_4/conv_transpose_._1/conv2d_transpose_1/strided_slice/stack_2", "shape": [1], "dtype": "int32"}, {"name": "StatefulPartitionedCall/sequential_4/conv_transpose_._1/conv2d_transpose_1/strided_slice_1/stack", "shape": [1], "dtype": "int32"}, {"name": "StatefulPartitionedCall/sequential_4/conv_transpose_._1/conv2d_transpose_1/strided_slice_1/stack_1", "shape": [1], "dtype": "int32"}, {"name": "StatefulPartitionedCall/sequential_4/conv_transpose_._1/conv2d_transpose_1/strided_slice_1/stack_2", "shape": [1], "dtype": "int32"}, {"name": "StatefulPartitionedCall/sequential_4/conv_transpose_._1/conv2d_transpose_1/mul/y", "shape": [], "dtype": "int32"}, {"name": "StatefulPartitionedCall/sequential_4/conv_transpose_._1/conv2d_transpose_1/stack/2", "shape": [], "dtype": "int32"}, {"name": "StatefulPartitionedCall/sequential_4/conv_transpose_._1/conv2d_transpose_1/stack/3", "shape": [], "dtype": "int32"}, {"name": "unknown_27", "shape": [8, 1, 96, 192], "dtype": "float32"}, {"name": "StatefulPartitionedCall/sequential_4/residual_stack_._0._._3/shortcut/conv1d/ExpandDims/dim", "shape": [], "dtype": "int32"}, {"name": "StatefulPartitionedCall/sequential_4/residual_stack_._0._._3/shortcut/conv1d/ExpandDims_1", "shape": [1, 1, 192, 192], "dtype": "float32"}, {"name": "unknown_26", "shape": [192], "dtype": "float32"}, {"name": "StatefulPartitionedCall/sequential_4/residual_stack_._0._._3/conv1d_7/conv1d/SpaceToBatchND/block_shape", "shape": [1], "dtype": "int32"}, {"name": "StatefulPartitionedCall/sequential_4/residual_stack_._0._._3/conv1d_7/conv1d/required_space_to_batch_paddings/strided_slice_2", "shape": [], "dtype": "int32"}, {"name": "StatefulPartitionedCall/sequential_4/residual_stack_._0._._3/conv1d_7/conv1d/required_space_to_batch_paddings/strided_slice_3/stack", "shape": [1], "dtype": "int32"}, {"name": "StatefulPartitionedCall/sequential_4/residual_stack_._0._._3/conv1d_7/conv1d/required_space_to_batch_paddings/strided_slice_3/stack_1", "shape": [1], "dtype": "int32"}, {"name": "StatefulPartitionedCall/sequential_4/residual_stack_._0._._3/conv1d_7/conv1d/required_space_to_batch_paddings/strided_slice_3/stack_2", "shape": [1], "dtype": "int32"}, {"name": "StatefulPartitionedCall/sequential_4/residual_stack_._0._._3/conv1d_7/conv1d/ExpandDims/dim", "shape": [], "dtype": "int32"}, {"name": "StatefulPartitionedCall/sequential_4/residual_stack_._0._._3/conv1d_7/conv1d/ExpandDims_1", "shape": [1, 3, 192, 192], "dtype": "float32"}, {"name": "StatefulPartitionedCall/sequential_4/residual_stack_._0._._3/conv1d_7/conv1d/BatchToSpaceND/block_shape", "shape": [1], "dtype": "int32"}, {"name": "StatefulPartitionedCall/sequential_4/residual_stack_._0._._3/conv1d_7/conv1d/required_space_to_batch_paddings/crops/0/0", "shape": [], "dtype": "int32"}, {"name": "StatefulPartitionedCall/sequential_4/residual_stack_._0._._2/shortcut/conv1d/ExpandDims/dim", "shape": [], "dtype": "int32"}, {"name": "StatefulPartitionedCall/sequential_4/residual_stack_._0._._2/shortcut/conv1d/ExpandDims_1", "shape": [1, 1, 192, 192], "dtype": "float32"}, {"name": "unknown_20", "shape": [192], "dtype": "float32"}, {"name": "StatefulPartitionedCall/sequential_4/residual_stack_._0._._2/conv1d_5/conv1d/SpaceToBatchND/block_shape", "shape": [1], "dtype": "int32"}, {"name": "StatefulPartitionedCall/sequential_4/residual_stack_._0._._2/conv1d_5/conv1d/required_space_to_batch_paddings/strided_slice_2", "shape": [], "dtype": "int32"}, {"name": "StatefulPartitionedCall/sequential_4/residual_stack_._0._._2/conv1d_5/conv1d/required_space_to_batch_paddings/strided_slice_3/stack", "shape": [1], "dtype": "int32"}, {"name": "StatefulPartitionedCall/sequential_4/residual_stack_._0._._2/conv1d_5/conv1d/required_space_to_batch_paddings/strided_slice_3/stack_1", "shape": [1], "dtype": "int32"}, {"name": "StatefulPartitionedCall/sequential_4/residual_stack_._0._._2/conv1d_5/conv1d/required_space_to_batch_paddings/strided_slice_3/stack_2", "shape": [1], "dtype": "int32"}, {"name": "StatefulPartitionedCall/sequential_4/residual_stack_._0._._2/conv1d_5/conv1d/ExpandDims/dim", "shape": [], "dtype": "int32"}, {"name": "StatefulPartitionedCall/sequential_4/residual_stack_._0._._2/conv1d_5/conv1d/ExpandDims_1", "shape": [1, 3, 192, 192], "dtype": "float32"}, {"name": "StatefulPartitionedCall/sequential_4/residual_stack_._0._._2/conv1d_5/conv1d/BatchToSpaceND/block_shape", "shape": [1], "dtype": "int32"}, {"name": "StatefulPartitionedCall/sequential_4/residual_stack_._0._._2/conv1d_5/conv1d/required_space_to_batch_paddings/crops/0/0", "shape": [], "dtype": "int32"}, {"name": "StatefulPartitionedCall/sequential_4/residual_stack_._0._._1/shortcut/conv1d/ExpandDims/dim", "shape": [], "dtype": "int32"}, {"name": "StatefulPartitionedCall/sequential_4/residual_stack_._0._._1/shortcut/conv1d/ExpandDims_1", "shape": [1, 1, 192, 192], "dtype": "float32"}, {"name": "unknown_14", "shape": [192], "dtype": "float32"}, {"name": "StatefulPartitionedCall/sequential_4/residual_stack_._0._._1/conv1d_3/conv1d/SpaceToBatchND/block_shape", "shape": [1], "dtype": "int32"}, {"name": "StatefulPartitionedCall/sequential_4/residual_stack_._0._._1/conv1d_3/conv1d/required_space_to_batch_paddings/strided_slice_2", "shape": [], "dtype": "int32"}, {"name": "StatefulPartitionedCall/sequential_4/residual_stack_._0._._1/conv1d_3/conv1d/required_space_to_batch_paddings/strided_slice_3/stack", "shape": [1], "dtype": "int32"}, {"name": "StatefulPartitionedCall/sequential_4/residual_stack_._0._._1/conv1d_3/conv1d/required_space_to_batch_paddings/strided_slice_3/stack_1", "shape": [1], "dtype": "int32"}, {"name": "StatefulPartitionedCall/sequential_4/residual_stack_._0._._1/conv1d_3/conv1d/required_space_to_batch_paddings/strided_slice_3/stack_2", "shape": [1], "dtype": "int32"}, {"name": "StatefulPartitionedCall/sequential_4/residual_stack_._0._._1/conv1d_3/conv1d/ExpandDims/dim", "shape": [], "dtype": "int32"}, {"name": "StatefulPartitionedCall/sequential_4/residual_stack_._0._._1/conv1d_3/conv1d/ExpandDims_1", "shape": [1, 3, 192, 192], "dtype": "float32"}, {"name": "StatefulPartitionedCall/sequential_4/residual_stack_._0._._1/conv1d_3/conv1d/BatchToSpaceND/block_shape", "shape": [1], "dtype": "int32"}, {"name": "StatefulPartitionedCall/sequential_4/residual_stack_._0._._1/conv1d_3/conv1d/required_space_to_batch_paddings/crops/0/0", "shape": [], "dtype": "int32"}, {"name": "StatefulPartitionedCall/sequential_4/residual_stack_._0._._0/shortcut/conv1d/ExpandDims/dim", "shape": [], "dtype": "int32"}, {"name": "StatefulPartitionedCall/sequential_4/residual_stack_._0._._0/shortcut/conv1d/ExpandDims_1", "shape": [1, 1, 192, 192], "dtype": "float32"}, {"name": "unknown_8", "shape": [192], "dtype": "float32"}, {"name": "StatefulPartitionedCall/sequential_4/conv_transpose_._0/conv2d_transpose/strided_slice/stack", "shape": [1], "dtype": "int32"}, {"name": "StatefulPartitionedCall/sequential_4/conv_transpose_._0/conv2d_transpose/strided_slice/stack_1", "shape": [1], "dtype": "int32"}, {"name": "StatefulPartitionedCall/sequential_4/conv_transpose_._0/conv2d_transpose/strided_slice/stack_2", "shape": [1], "dtype": "int32"}, {"name": "StatefulPartitionedCall/sequential_4/conv_transpose_._0/conv2d_transpose/strided_slice_1/stack", "shape": [1], "dtype": "int32"}, {"name": "StatefulPartitionedCall/sequential_4/conv_transpose_._0/conv2d_transpose/strided_slice_1/stack_1", "shape": [1], "dtype": "int32"}, {"name": "StatefulPartitionedCall/sequential_4/conv_transpose_._0/conv2d_transpose/strided_slice_1/stack_2", "shape": [1], "dtype": "int32"}, {"name": "StatefulPartitionedCall/sequential_4/conv_transpose_._0/conv2d_transpose/mul/y", "shape": [], "dtype": "int32"}, {"name": "StatefulPartitionedCall/sequential_4/conv_transpose_._0/conv2d_transpose/stack/2", "shape": [], "dtype": "int32"}, {"name": "StatefulPartitionedCall/sequential_4/conv_transpose_._0/conv2d_transpose/stack/3", "shape": [], "dtype": "int32"}, {"name": "unknown_1", "shape": [16, 1, 192, 384], "dtype": "float32"}, {"name": "StatefulPartitionedCall/sequential_4/first_reflect_padding/MirrorPad/paddings", "shape": [3, 2], "dtype": "int32"}, {"name": "StatefulPartitionedCall/sequential_4/conv1d/conv1d/ExpandDims/dim", "shape": [], "dtype": "int32"}, {"name": "StatefulPartitionedCall/sequential_4/conv1d/conv1d/ExpandDims_1", "shape": [1, 7, 80, 384], "dtype": "float32"}, {"name": "unknown_0", "shape": [384], "dtype": "float32"}, {"name": "StatefulPartitionedCall/sequential_4/conv_transpose_._0/ExpandDims/dim", "shape": [], "dtype": "int32"}, {"name": "unknown_2", "shape": [192], "dtype": "float32"}, {"name": "StatefulPartitionedCall/sequential_4/residual_stack_._0._._0/tf_reflection_pad1d/MirrorPad/paddings", "shape": [3, 2], "dtype": "int32"}, {"name": "StatefulPartitionedCall/sequential_4/residual_stack_._0._._0/conv1d_1/conv1d/ExpandDims/dim", "shape": [], "dtype": "int32"}, {"name": "StatefulPartitionedCall/sequential_4/residual_stack_._0._._0/conv1d_1/conv1d/ExpandDims_1", "shape": [1, 3, 192, 192], "dtype": "float32"}, {"name": "unknown_4", "shape": [192], "dtype": "float32"}, {"name": "StatefulPartitionedCall/sequential_4/residual_stack_._0._._0/conv1d_2/conv1d/ExpandDims/dim", "shape": [], "dtype": "int32"}, {"name": "StatefulPartitionedCall/sequential_4/residual_stack_._0._._0/conv1d_2/conv1d/ExpandDims_1", "shape": [1, 1, 192, 192], "dtype": "float32"}, {"name": "unknown_6", "shape": [192], "dtype": "float32"}, {"name": "StatefulPartitionedCall/sequential_4/residual_stack_._0._._1/tf_reflection_pad1d_1/MirrorPad/paddings", "shape": [3, 2], "dtype": "int32"}, {"name": "StatefulPartitionedCall/sequential_4/residual_stack_._0._._1/conv1d_3/conv1d/strided_slice/stack", "shape": [1], "dtype": "int32"}, {"name": "StatefulPartitionedCall/sequential_4/residual_stack_._0._._1/conv1d_3/conv1d/strided_slice/stack_1", "shape": [1], "dtype": "int32"}, {"name": "StatefulPartitionedCall/sequential_4/residual_stack_._0._._1/conv1d_3/conv1d/strided_slice/stack_2", "shape": [1], "dtype": "int32"}, {"name": "StatefulPartitionedCall/sequential_4/residual_stack_._0._._1/conv1d_3/conv1d/dilation_rate", "shape": [1], "dtype": "int32"}, {"name": "StatefulPartitionedCall/sequential_4/residual_stack_._0._._1/conv1d_3/conv1d/required_space_to_batch_paddings/strided_slice_4/stack", "shape": [1], "dtype": "int32"}, {"name": "StatefulPartitionedCall/sequential_4/residual_stack_._0._._1/conv1d_3/conv1d/required_space_to_batch_paddings/strided_slice_4/stack_1", "shape": [1], "dtype": "int32"}, {"name": "StatefulPartitionedCall/sequential_4/residual_stack_._0._._1/conv1d_3/conv1d/required_space_to_batch_paddings/strided_slice_4/stack_2", "shape": [1], "dtype": "int32"}, {"name": "unknown_10", "shape": [192], "dtype": "float32"}, {"name": "StatefulPartitionedCall/sequential_4/residual_stack_._0._._1/conv1d_4/conv1d/ExpandDims/dim", "shape": [], "dtype": "int32"}, {"name": "StatefulPartitionedCall/sequential_4/residual_stack_._0._._1/conv1d_4/conv1d/ExpandDims_1", "shape": [1, 1, 192, 192], "dtype": "float32"}, {"name": "unknown_12", "shape": [192], "dtype": "float32"}, {"name": "StatefulPartitionedCall/sequential_4/residual_stack_._0._._2/tf_reflection_pad1d_2/MirrorPad/paddings", "shape": [3, 2], "dtype": "int32"}, {"name": "StatefulPartitionedCall/sequential_4/residual_stack_._0._._2/conv1d_5/conv1d/strided_slice/stack", "shape": [1], "dtype": "int32"}, {"name": "StatefulPartitionedCall/sequential_4/residual_stack_._0._._2/conv1d_5/conv1d/strided_slice/stack_1", "shape": [1], "dtype": "int32"}, {"name": "StatefulPartitionedCall/sequential_4/residual_stack_._0._._2/conv1d_5/conv1d/strided_slice/stack_2", "shape": [1], "dtype": "int32"}, {"name": "StatefulPartitionedCall/sequential_4/residual_stack_._0._._2/conv1d_5/conv1d/dilation_rate", "shape": [1], "dtype": "int32"}, {"name": "StatefulPartitionedCall/sequential_4/residual_stack_._0._._2/conv1d_5/conv1d/required_space_to_batch_paddings/strided_slice_4/stack", "shape": [1], "dtype": "int32"}, {"name": "StatefulPartitionedCall/sequential_4/residual_stack_._0._._2/conv1d_5/conv1d/required_space_to_batch_paddings/strided_slice_4/stack_1", "shape": [1], "dtype": "int32"}, {"name": "StatefulPartitionedCall/sequential_4/residual_stack_._0._._2/conv1d_5/conv1d/required_space_to_batch_paddings/strided_slice_4/stack_2", "shape": [1], "dtype": "int32"}, {"name": "unknown_16", "shape": [192], "dtype": "float32"}, {"name": "StatefulPartitionedCall/sequential_4/residual_stack_._0._._2/conv1d_6/conv1d/ExpandDims/dim", "shape": [], "dtype": "int32"}, {"name": "StatefulPartitionedCall/sequential_4/residual_stack_._0._._2/conv1d_6/conv1d/ExpandDims_1", "shape": [1, 1, 192, 192], "dtype": "float32"}, {"name": "unknown_18", "shape": [192], "dtype": "float32"}, {"name": "StatefulPartitionedCall/sequential_4/residual_stack_._0._._3/tf_reflection_pad1d_3/MirrorPad/paddings", "shape": [3, 2], "dtype": "int32"}, {"name": "StatefulPartitionedCall/sequential_4/residual_stack_._0._._3/conv1d_7/conv1d/strided_slice/stack", "shape": [1], "dtype": "int32"}, {"name": "StatefulPartitionedCall/sequential_4/residual_stack_._0._._3/conv1d_7/conv1d/strided_slice/stack_1", "shape": [1], "dtype": "int32"}, {"name": "StatefulPartitionedCall/sequential_4/residual_stack_._0._._3/conv1d_7/conv1d/strided_slice/stack_2", "shape": [1], "dtype": "int32"}, {"name": "StatefulPartitionedCall/sequential_4/residual_stack_._0._._3/conv1d_7/conv1d/dilation_rate", "shape": [1], "dtype": "int32"}, {"name": "StatefulPartitionedCall/sequential_4/residual_stack_._0._._3/conv1d_7/conv1d/required_space_to_batch_paddings/strided_slice_4/stack", "shape": [1], "dtype": "int32"}, {"name": "StatefulPartitionedCall/sequential_4/residual_stack_._0._._3/conv1d_7/conv1d/required_space_to_batch_paddings/strided_slice_4/stack_1", "shape": [1], "dtype": "int32"}, {"name": "StatefulPartitionedCall/sequential_4/residual_stack_._0._._3/conv1d_7/conv1d/required_space_to_batch_paddings/strided_slice_4/stack_2", "shape": [1], "dtype": "int32"}, {"name": "unknown_22", "shape": [192], "dtype": "float32"}, {"name": "StatefulPartitionedCall/sequential_4/residual_stack_._0._._3/conv1d_8/conv1d/ExpandDims/dim", "shape": [], "dtype": "int32"}, {"name": "StatefulPartitionedCall/sequential_4/residual_stack_._0._._3/conv1d_8/conv1d/ExpandDims_1", "shape": [1, 1, 192, 192], "dtype": "float32"}, {"name": "unknown_24", "shape": [192], "dtype": "float32"}, {"name": "StatefulPartitionedCall/sequential_4/conv_transpose_._1/ExpandDims/dim", "shape": [], "dtype": "int32"}, {"name": "unknown_28", "shape": [96], "dtype": "float32"}, {"name": "StatefulPartitionedCall/sequential_4/residual_stack_._1._._0/tf_reflection_pad1d_4/MirrorPad/paddings", "shape": [3, 2], "dtype": "int32"}, {"name": "StatefulPartitionedCall/sequential_4/residual_stack_._1._._0/conv1d_9/conv1d/ExpandDims/dim", "shape": [], "dtype": "int32"}, {"name": "StatefulPartitionedCall/sequential_4/residual_stack_._1._._0/conv1d_9/conv1d/ExpandDims_1", "shape": [1, 3, 96, 96], "dtype": "float32"}, {"name": "unknown_30", "shape": [96], "dtype": "float32"}, {"name": "StatefulPartitionedCall/sequential_4/residual_stack_._1._._0/conv1d_10/conv1d/ExpandDims/dim", "shape": [], "dtype": "int32"}, {"name": "StatefulPartitionedCall/sequential_4/residual_stack_._1._._0/conv1d_10/conv1d/ExpandDims_1", "shape": [1, 1, 96, 96], "dtype": "float32"}, {"name": "unknown_32", "shape": [96], "dtype": "float32"}, {"name": "StatefulPartitionedCall/sequential_4/residual_stack_._1._._1/tf_reflection_pad1d_5/MirrorPad/paddings", "shape": [3, 2], "dtype": "int32"}, {"name": "StatefulPartitionedCall/sequential_4/residual_stack_._1._._1/conv1d_11/conv1d/strided_slice/stack", "shape": [1], "dtype": "int32"}, {"name": "StatefulPartitionedCall/sequential_4/residual_stack_._1._._1/conv1d_11/conv1d/strided_slice/stack_1", "shape": [1], "dtype": "int32"}, {"name": "StatefulPartitionedCall/sequential_4/residual_stack_._1._._1/conv1d_11/conv1d/strided_slice/stack_2", "shape": [1], "dtype": "int32"}, {"name": "StatefulPartitionedCall/sequential_4/residual_stack_._1._._1/conv1d_11/conv1d/dilation_rate", "shape": [1], "dtype": "int32"}, {"name": "StatefulPartitionedCall/sequential_4/residual_stack_._1._._1/conv1d_11/conv1d/required_space_to_batch_paddings/strided_slice_4/stack", "shape": [1], "dtype": "int32"}, {"name": "StatefulPartitionedCall/sequential_4/residual_stack_._1._._1/conv1d_11/conv1d/required_space_to_batch_paddings/strided_slice_4/stack_1", "shape": [1], "dtype": "int32"}, {"name": "StatefulPartitionedCall/sequential_4/residual_stack_._1._._1/conv1d_11/conv1d/required_space_to_batch_paddings/strided_slice_4/stack_2", "shape": [1], "dtype": "int32"}, {"name": "unknown_36", "shape": [96], "dtype": "float32"}, {"name": "StatefulPartitionedCall/sequential_4/residual_stack_._1._._1/conv1d_12/conv1d/ExpandDims/dim", "shape": [], "dtype": "int32"}, {"name": "StatefulPartitionedCall/sequential_4/residual_stack_._1._._1/conv1d_12/conv1d/ExpandDims_1", "shape": [1, 1, 96, 96], "dtype": "float32"}, {"name": "unknown_38", "shape": [96], "dtype": "float32"}, {"name": "StatefulPartitionedCall/sequential_4/residual_stack_._1._._2/tf_reflection_pad1d_6/MirrorPad/paddings", "shape": [3, 2], "dtype": "int32"}, {"name": "StatefulPartitionedCall/sequential_4/residual_stack_._1._._2/conv1d_13/conv1d/strided_slice/stack", "shape": [1], "dtype": "int32"}, {"name": "StatefulPartitionedCall/sequential_4/residual_stack_._1._._2/conv1d_13/conv1d/strided_slice/stack_1", "shape": [1], "dtype": "int32"}, {"name": "StatefulPartitionedCall/sequential_4/residual_stack_._1._._2/conv1d_13/conv1d/strided_slice/stack_2", "shape": [1], "dtype": "int32"}, {"name": "StatefulPartitionedCall/sequential_4/residual_stack_._1._._2/conv1d_13/conv1d/dilation_rate", "shape": [1], "dtype": "int32"}, {"name": "StatefulPartitionedCall/sequential_4/residual_stack_._1._._2/conv1d_13/conv1d/required_space_to_batch_paddings/strided_slice_4/stack", "shape": [1], "dtype": "int32"}, {"name": "StatefulPartitionedCall/sequential_4/residual_stack_._1._._2/conv1d_13/conv1d/required_space_to_batch_paddings/strided_slice_4/stack_1", "shape": [1], "dtype": "int32"}, {"name": "StatefulPartitionedCall/sequential_4/residual_stack_._1._._2/conv1d_13/conv1d/required_space_to_batch_paddings/strided_slice_4/stack_2", "shape": [1], "dtype": "int32"}, {"name": "unknown_42", "shape": [96], "dtype": "float32"}, {"name": "StatefulPartitionedCall/sequential_4/residual_stack_._1._._2/conv1d_14/conv1d/ExpandDims/dim", "shape": [], "dtype": "int32"}, {"name": "StatefulPartitionedCall/sequential_4/residual_stack_._1._._2/conv1d_14/conv1d/ExpandDims_1", "shape": [1, 1, 96, 96], "dtype": "float32"}, {"name": "unknown_44", "shape": [96], "dtype": "float32"}, {"name": "StatefulPartitionedCall/sequential_4/residual_stack_._1._._3/tf_reflection_pad1d_7/MirrorPad/paddings", "shape": [3, 2], "dtype": "int32"}, {"name": "StatefulPartitionedCall/sequential_4/residual_stack_._1._._3/conv1d_15/conv1d/strided_slice/stack", "shape": [1], "dtype": "int32"}, {"name": "StatefulPartitionedCall/sequential_4/residual_stack_._1._._3/conv1d_15/conv1d/strided_slice/stack_1", "shape": [1], "dtype": "int32"}, {"name": "StatefulPartitionedCall/sequential_4/residual_stack_._1._._3/conv1d_15/conv1d/strided_slice/stack_2", "shape": [1], "dtype": "int32"}, {"name": "StatefulPartitionedCall/sequential_4/residual_stack_._1._._3/conv1d_15/conv1d/dilation_rate", "shape": [1], "dtype": "int32"}, {"name": "StatefulPartitionedCall/sequential_4/residual_stack_._1._._3/conv1d_15/conv1d/required_space_to_batch_paddings/strided_slice_4/stack", "shape": [1], "dtype": "int32"}, {"name": "StatefulPartitionedCall/sequential_4/residual_stack_._1._._3/conv1d_15/conv1d/required_space_to_batch_paddings/strided_slice_4/stack_1", "shape": [1], "dtype": "int32"}, {"name": "StatefulPartitionedCall/sequential_4/residual_stack_._1._._3/conv1d_15/conv1d/required_space_to_batch_paddings/strided_slice_4/stack_2", "shape": [1], "dtype": "int32"}, {"name": "unknown_48", "shape": [96], "dtype": "float32"}, {"name": "StatefulPartitionedCall/sequential_4/residual_stack_._1._._3/conv1d_16/conv1d/ExpandDims/dim", "shape": [], "dtype": "int32"}, {"name": "StatefulPartitionedCall/sequential_4/residual_stack_._1._._3/conv1d_16/conv1d/ExpandDims_1", "shape": [1, 1, 96, 96], "dtype": "float32"}, {"name": "unknown_50", "shape": [96], "dtype": "float32"}, {"name": "StatefulPartitionedCall/sequential_4/conv_transpose_._2/ExpandDims/dim", "shape": [], "dtype": "int32"}, {"name": "unknown_54", "shape": [48], "dtype": "float32"}, {"name": "StatefulPartitionedCall/sequential_4/residual_stack_._2._._0/tf_reflection_pad1d_8/MirrorPad/paddings", "shape": [3, 2], "dtype": "int32"}, {"name": "StatefulPartitionedCall/sequential_4/residual_stack_._2._._0/conv1d_17/conv1d/ExpandDims/dim", "shape": [], "dtype": "int32"}, {"name": "StatefulPartitionedCall/sequential_4/residual_stack_._2._._0/conv1d_17/conv1d/ExpandDims_1", "shape": [1, 3, 48, 48], "dtype": "float32"}, {"name": "unknown_56", "shape": [48], "dtype": "float32"}, {"name": "StatefulPartitionedCall/sequential_4/residual_stack_._2._._0/conv1d_18/conv1d/ExpandDims/dim", "shape": [], "dtype": "int32"}, {"name": "StatefulPartitionedCall/sequential_4/residual_stack_._2._._0/conv1d_18/conv1d/ExpandDims_1", "shape": [1, 1, 48, 48], "dtype": "float32"}, {"name": "unknown_58", "shape": [48], "dtype": "float32"}, {"name": "StatefulPartitionedCall/sequential_4/residual_stack_._2._._1/tf_reflection_pad1d_9/MirrorPad/paddings", "shape": [3, 2], "dtype": "int32"}, {"name": "StatefulPartitionedCall/sequential_4/residual_stack_._2._._1/conv1d_19/conv1d/strided_slice/stack", "shape": [1], "dtype": "int32"}, {"name": "StatefulPartitionedCall/sequential_4/residual_stack_._2._._1/conv1d_19/conv1d/strided_slice/stack_1", "shape": [1], "dtype": "int32"}, {"name": "StatefulPartitionedCall/sequential_4/residual_stack_._2._._1/conv1d_19/conv1d/strided_slice/stack_2", "shape": [1], "dtype": "int32"}, {"name": "StatefulPartitionedCall/sequential_4/residual_stack_._2._._1/conv1d_19/conv1d/dilation_rate", "shape": [1], "dtype": "int32"}, {"name": "StatefulPartitionedCall/sequential_4/residual_stack_._2._._1/conv1d_19/conv1d/required_space_to_batch_paddings/strided_slice_4/stack", "shape": [1], "dtype": "int32"}, {"name": "StatefulPartitionedCall/sequential_4/residual_stack_._2._._1/conv1d_19/conv1d/required_space_to_batch_paddings/strided_slice_4/stack_1", "shape": [1], "dtype": "int32"}, {"name": "StatefulPartitionedCall/sequential_4/residual_stack_._2._._1/conv1d_19/conv1d/required_space_to_batch_paddings/strided_slice_4/stack_2", "shape": [1], "dtype": "int32"}, {"name": "unknown_62", "shape": [48], "dtype": "float32"}, {"name": "StatefulPartitionedCall/sequential_4/residual_stack_._2._._1/conv1d_20/conv1d/ExpandDims/dim", "shape": [], "dtype": "int32"}, {"name": "StatefulPartitionedCall/sequential_4/residual_stack_._2._._1/conv1d_20/conv1d/ExpandDims_1", "shape": [1, 1, 48, 48], "dtype": "float32"}, {"name": "unknown_64", "shape": [48], "dtype": "float32"}, {"name": "StatefulPartitionedCall/sequential_4/residual_stack_._2._._2/tf_reflection_pad1d_10/MirrorPad/paddings", "shape": [3, 2], "dtype": "int32"}, {"name": "StatefulPartitionedCall/sequential_4/residual_stack_._2._._2/conv1d_21/conv1d/strided_slice/stack", "shape": [1], "dtype": "int32"}, {"name": "StatefulPartitionedCall/sequential_4/residual_stack_._2._._2/conv1d_21/conv1d/strided_slice/stack_1", "shape": [1], "dtype": "int32"}, {"name": "StatefulPartitionedCall/sequential_4/residual_stack_._2._._2/conv1d_21/conv1d/strided_slice/stack_2", "shape": [1], "dtype": "int32"}, {"name": "StatefulPartitionedCall/sequential_4/residual_stack_._2._._2/conv1d_21/conv1d/dilation_rate", "shape": [1], "dtype": "int32"}, {"name": "StatefulPartitionedCall/sequential_4/residual_stack_._2._._2/conv1d_21/conv1d/required_space_to_batch_paddings/strided_slice_4/stack", "shape": [1], "dtype": "int32"}, {"name": "StatefulPartitionedCall/sequential_4/residual_stack_._2._._2/conv1d_21/conv1d/required_space_to_batch_paddings/strided_slice_4/stack_1", "shape": [1], "dtype": "int32"}, {"name": "StatefulPartitionedCall/sequential_4/residual_stack_._2._._2/conv1d_21/conv1d/required_space_to_batch_paddings/strided_slice_4/stack_2", "shape": [1], "dtype": "int32"}, {"name": "unknown_68", "shape": [48], "dtype": "float32"}, {"name": "StatefulPartitionedCall/sequential_4/residual_stack_._2._._2/conv1d_22/conv1d/ExpandDims/dim", "shape": [], "dtype": "int32"}, {"name": "StatefulPartitionedCall/sequential_4/residual_stack_._2._._2/conv1d_22/conv1d/ExpandDims_1", "shape": [1, 1, 48, 48], "dtype": "float32"}, {"name": "unknown_70", "shape": [48], "dtype": "float32"}, {"name": "StatefulPartitionedCall/sequential_4/residual_stack_._2._._3/tf_reflection_pad1d_11/MirrorPad/paddings", "shape": [3, 2], "dtype": "int32"}, {"name": "StatefulPartitionedCall/sequential_4/residual_stack_._2._._3/conv1d_23/conv1d/strided_slice/stack", "shape": [1], "dtype": "int32"}, {"name": "StatefulPartitionedCall/sequential_4/residual_stack_._2._._3/conv1d_23/conv1d/strided_slice/stack_1", "shape": [1], "dtype": "int32"}, {"name": "StatefulPartitionedCall/sequential_4/residual_stack_._2._._3/conv1d_23/conv1d/strided_slice/stack_2", "shape": [1], "dtype": "int32"}, {"name": "StatefulPartitionedCall/sequential_4/residual_stack_._2._._3/conv1d_23/conv1d/dilation_rate", "shape": [1], "dtype": "int32"}, {"name": "StatefulPartitionedCall/sequential_4/residual_stack_._2._._3/conv1d_23/conv1d/required_space_to_batch_paddings/strided_slice_4/stack", "shape": [1], "dtype": "int32"}, {"name": "StatefulPartitionedCall/sequential_4/residual_stack_._2._._3/conv1d_23/conv1d/required_space_to_batch_paddings/strided_slice_4/stack_1", "shape": [1], "dtype": "int32"}, {"name": "StatefulPartitionedCall/sequential_4/residual_stack_._2._._3/conv1d_23/conv1d/required_space_to_batch_paddings/strided_slice_4/stack_2", "shape": [1], "dtype": "int32"}, {"name": "unknown_74", "shape": [48], "dtype": "float32"}, {"name": "StatefulPartitionedCall/sequential_4/residual_stack_._2._._3/conv1d_24/conv1d/ExpandDims/dim", "shape": [], "dtype": "int32"}, {"name": "StatefulPartitionedCall/sequential_4/residual_stack_._2._._3/conv1d_24/conv1d/ExpandDims_1", "shape": [1, 1, 48, 48], "dtype": "float32"}, {"name": "unknown_76", "shape": [48], "dtype": "float32"}, {"name": "StatefulPartitionedCall/sequential_4/last_reflect_padding/MirrorPad/paddings", "shape": [3, 2], "dtype": "int32"}, {"name": "StatefulPartitionedCall/sequential_4/conv1d_25/conv1d/ExpandDims/dim", "shape": [], "dtype": "int32"}, {"name": "StatefulPartitionedCall/sequential_4/conv1d_25/conv1d/ExpandDims_1", "shape": [1, 7, 48, 4], "dtype": "float32"}, {"name": "unknown_80", "shape": [4], "dtype": "float32"}, {"name": "StatefulPartitionedCall/PartitionedCall/conv1d_transpose/ExpandDims/dim", "shape": [], "dtype": "int32"}, {"name": "StatefulPartitionedCall/PartitionedCall/Pad/paddings", "shape": [3, 2], "dtype": "int32"}, {"name": "StatefulPartitionedCall/PartitionedCall/conv1d/ExpandDims/dim", "shape": [], "dtype": "int32"}, {"name": "StatefulPartitionedCall/PartitionedCall/conv1d/ExpandDims_1", "shape": [1, 63, 4, 1], "dtype": "float32"}, {"name": "ConstantFolding/StatefulPartitionedCall/sequential_4/residual_stack_._0._._1/conv1d_3/conv1d/stack_const_axis", "shape": [], "dtype": "int32"}, {"name": "ConstantFolding/StatefulPartitionedCall/sequential_4/residual_stack_._0._._1/conv1d_3/conv1d/required_space_to_batch_paddings/paddings_const_axis", "shape": [], "dtype": "int32"}, {"name": "ConstantFolding/StatefulPartitionedCall/sequential_4/residual_stack_._0._._1/conv1d_3/conv1d/required_space_to_batch_paddings/crops_const_axis", "shape": [], "dtype": "int32"}, {"name": "ConstantFolding/StatefulPartitionedCall/sequential_4/residual_stack_._0._._2/conv1d_5/conv1d/stack_const_axis", "shape": [], "dtype": "int32"}, {"name": "ConstantFolding/StatefulPartitionedCall/sequential_4/residual_stack_._0._._2/conv1d_5/conv1d/required_space_to_batch_paddings/paddings_const_axis", "shape": [], "dtype": "int32"}, {"name": "ConstantFolding/StatefulPartitionedCall/sequential_4/residual_stack_._0._._2/conv1d_5/conv1d/required_space_to_batch_paddings/crops_const_axis", "shape": [], "dtype": "int32"}, {"name": "ConstantFolding/StatefulPartitionedCall/sequential_4/residual_stack_._0._._3/conv1d_7/conv1d/stack_const_axis", "shape": [], "dtype": "int32"}, {"name": "ConstantFolding/StatefulPartitionedCall/sequential_4/residual_stack_._0._._3/conv1d_7/conv1d/required_space_to_batch_paddings/paddings_const_axis", "shape": [], "dtype": "int32"}, {"name": "ConstantFolding/StatefulPartitionedCall/sequential_4/residual_stack_._0._._3/conv1d_7/conv1d/required_space_to_batch_paddings/crops_const_axis", "shape": [], "dtype": "int32"}, {"name": "ConstantFolding/StatefulPartitionedCall/sequential_4/residual_stack_._1._._1/conv1d_11/conv1d/stack_const_axis", "shape": [], "dtype": "int32"}, {"name": "ConstantFolding/StatefulPartitionedCall/sequential_4/residual_stack_._1._._1/conv1d_11/conv1d/required_space_to_batch_paddings/paddings_const_axis", "shape": [], "dtype": "int32"}, {"name": "ConstantFolding/StatefulPartitionedCall/sequential_4/residual_stack_._1._._1/conv1d_11/conv1d/required_space_to_batch_paddings/crops_const_axis", "shape": [], "dtype": "int32"}, {"name": "ConstantFolding/StatefulPartitionedCall/sequential_4/residual_stack_._1._._2/conv1d_13/conv1d/stack_const_axis", "shape": [], "dtype": "int32"}, {"name": "ConstantFolding/StatefulPartitionedCall/sequential_4/residual_stack_._1._._2/conv1d_13/conv1d/required_space_to_batch_paddings/paddings_const_axis", "shape": [], "dtype": "int32"}, {"name": "ConstantFolding/StatefulPartitionedCall/sequential_4/residual_stack_._1._._2/conv1d_13/conv1d/required_space_to_batch_paddings/crops_const_axis", "shape": [], "dtype": "int32"}, {"name": "ConstantFolding/StatefulPartitionedCall/sequential_4/residual_stack_._1._._3/conv1d_15/conv1d/stack_const_axis", "shape": [], "dtype": "int32"}, {"name": "ConstantFolding/StatefulPartitionedCall/sequential_4/residual_stack_._1._._3/conv1d_15/conv1d/required_space_to_batch_paddings/paddings_const_axis", "shape": [], "dtype": "int32"}, {"name": "ConstantFolding/StatefulPartitionedCall/sequential_4/residual_stack_._1._._3/conv1d_15/conv1d/required_space_to_batch_paddings/crops_const_axis", "shape": [], "dtype": "int32"}, {"name": "ConstantFolding/StatefulPartitionedCall/sequential_4/residual_stack_._2._._1/conv1d_19/conv1d/stack_const_axis", "shape": [], "dtype": "int32"}, {"name": "ConstantFolding/StatefulPartitionedCall/sequential_4/residual_stack_._2._._1/conv1d_19/conv1d/required_space_to_batch_paddings/paddings_const_axis", "shape": [], "dtype": "int32"}, {"name": "ConstantFolding/StatefulPartitionedCall/sequential_4/residual_stack_._2._._1/conv1d_19/conv1d/required_space_to_batch_paddings/crops_const_axis", "shape": [], "dtype": "int32"}, {"name": "ConstantFolding/StatefulPartitionedCall/sequential_4/residual_stack_._2._._2/conv1d_21/conv1d/stack_const_axis", "shape": [], "dtype": "int32"}, {"name": "ConstantFolding/StatefulPartitionedCall/sequential_4/residual_stack_._2._._2/conv1d_21/conv1d/required_space_to_batch_paddings/paddings_const_axis", "shape": [], "dtype": "int32"}, {"name": "ConstantFolding/StatefulPartitionedCall/sequential_4/residual_stack_._2._._2/conv1d_21/conv1d/required_space_to_batch_paddings/crops_const_axis", "shape": [], "dtype": "int32"}, {"name": "ConstantFolding/StatefulPartitionedCall/sequential_4/residual_stack_._2._._3/conv1d_23/conv1d/stack_const_axis", "shape": [], "dtype": "int32"}, {"name": "ConstantFolding/StatefulPartitionedCall/sequential_4/residual_stack_._2._._3/conv1d_23/conv1d/required_space_to_batch_paddings/paddings_const_axis", "shape": [], "dtype": "int32"}, {"name": "ConstantFolding/StatefulPartitionedCall/sequential_4/residual_stack_._2._._3/conv1d_23/conv1d/required_space_to_batch_paddings/crops_const_axis", "shape": [], "dtype": "int32"}, {"name": "ConstantFolding/StatefulPartitionedCall/PartitionedCall/conv1d_transpose/concat/values_0_const_axis", "shape": [], "dtype": "int32"}]}]}